{"format": "layers-model", "generatedBy": "keras v3.14.1", "convertedBy": "Mapan converter v3.0", "modelTopology": {"class_name": "Functional", "config": {"name": "functional", "trainable": true, "layers": [{"class_name": "InputLayer", "config": {"name": "input_layer", "dtype": "float32", "ragged": false, "sparse": false, "batch_input_shape": [null, 224, 224, 3]}, "name": "input_layer", "inbound_nodes": []}, {"class_name": "Conv2D", "config": {"groups": 1, "data_format": "channels_last", "trainable": false, "bias_initializer": {"class_name": "Zeros", "config": {}}, "activation": "linear", "kernel_constraint": null, "kernel_regularizer": null, "filters": 32, "use_bias": false, "name": "Conv1", "kernel_size": [3, 3], "kernel_initializer": {"class_name": "GlorotUniform", "config": {"seed": null}}, "activity_regularizer": null, "padding": "same", "bias_constraint": null, "bias_regularizer": null, "dtype": "float32", "dilation_rate": [1, 1], "strides": [2, 2]}, "name": "Conv1", "inbound_nodes": [[["input_layer", 0, 0, {}]]]}, {"class_name": "BatchNormalization", "config": {"gamma_constraint": null, "beta_regularizer": null, "trainable": false, "scale": true, "gamma_regularizer": null, "beta_constraint": null, "gamma_initializer": {"class_name": "Ones", "config": {}}, "epsilon": 0.001, "name": "bn_Conv1", "moving_variance_initializer": {"class_name": "Ones", "config": {}}, "momentum": 0.999, "center": true, "dtype": "float32", "axis": -1, "moving_mean_initializer": {"class_name": "Zeros", "config": {}}, "beta_initializer": {"class_name": "Zeros", "config": {}}}, "name": "bn_Conv1", "inbound_nodes": [[["Conv1", 0, 0, {}]]]}, {"class_name": "ReLU", "config": {"name": "Conv1_relu", "dtype": "float32", "threshold": 0.0, "trainable": false, "max_value": 6.0, "negative_slope": 0.0}, "name": "Conv1_relu", "inbound_nodes": [[["bn_Conv1", 0, 0, {}]]]}, {"class_name": "DepthwiseConv2D", "config": {"data_format": "channels_last", "trainable": false, "depth_multiplier": 1, "bias_initializer": {"class_name": "Zeros", "config": {}}, "depthwise_constraint": null, "activation": "linear", "use_bias": false, "name": "expanded_conv_depthwise", "kernel_size": [3, 3], "activity_regularizer": null, "padding": "same", "bias_constraint": null, "bias_regularizer": null, "depthwise_regularizer": null, "dtype": "float32", "depthwise_initializer": {"class_name": "GlorotUniform", "config": {"seed": null}}, "dilation_rate": [1, 1], "strides": [1, 1]}, "name": "expanded_conv_depthwise", "inbound_nodes": [[["Conv1_relu", 0, 0, {}]]]}, {"class_name": "BatchNormalization", "config": {"gamma_constraint": null, "beta_regularizer": null, "trainable": false, "scale": true, "gamma_regularizer": null, "beta_constraint": null, "gamma_initializer": {"class_name": "Ones", "config": {}}, "epsilon": 0.001, "name": "expanded_conv_depthwise_BN", "moving_variance_initializer": {"class_name": "Ones", "config": {}}, "momentum": 0.999, "center": true, "dtype": "float32", "axis": -1, "moving_mean_initializer": {"class_name": "Zeros", "config": {}}, "beta_initializer": {"class_name": "Zeros", "config": {}}}, "name": "expanded_conv_depthwise_BN", "inbound_nodes": [[["expanded_conv_depthwise", 0, 0, {}]]]}, {"class_name": "ReLU", "config": {"name": "expanded_conv_depthwise_relu", "dtype": "float32", "threshold": 0.0, "trainable": false, "max_value": 6.0, "negative_slope": 0.0}, "name": "expanded_conv_depthwise_relu", "inbound_nodes": [[["expanded_conv_depthwise_BN", 0, 0, {}]]]}, {"class_name": "Conv2D", "config": {"groups": 1, "data_format": "channels_last", "trainable": false, "bias_initializer": {"class_name": "Zeros", "config": {}}, "activation": "linear", "kernel_constraint": null, "kernel_regularizer": null, "filters": 16, "use_bias": false, "name": "expanded_conv_project", "kernel_size": [1, 1], "kernel_initializer": {"class_name": "GlorotUniform", "config": {"seed": null}}, "activity_regularizer": null, "padding": "same", "bias_constraint": null, "bias_regularizer": null, "dtype": "float32", "dilation_rate": [1, 1], "strides": [1, 1]}, "name": "expanded_conv_project", "inbound_nodes": [[["expanded_conv_depthwise_relu", 0, 0, {}]]]}, {"class_name": "BatchNormalization", "config": {"gamma_constraint": null, "beta_regularizer": null, "trainable": false, "scale": true, "gamma_regularizer": null, "beta_constraint": null, "gamma_initializer": {"class_name": "Ones", "config": {}}, "epsilon": 0.001, "name": "expanded_conv_project_BN", "moving_variance_initializer": {"class_name": "Ones", "config": {}}, "momentum": 0.999, "center": true, "dtype": "float32", "axis": -1, "moving_mean_initializer": {"class_name": "Zeros", "config": {}}, "beta_initializer": {"class_name": "Zeros", "config": {}}}, "name": "expanded_conv_project_BN", "inbound_nodes": [[["expanded_conv_project", 0, 0, {}]]]}, {"class_name": "Conv2D", "config": {"groups": 1, "data_format": "channels_last", "trainable": false, "bias_initializer": {"class_name": "Zeros", "config": {}}, "activation": "linear", "kernel_constraint": null, "kernel_regularizer": null, "filters": 96, "use_bias": false, "name": "block_1_expand", "kernel_size": [1, 1], "kernel_initializer": {"class_name": "GlorotUniform", "config": {"seed": null}}, "activity_regularizer": null, "padding": "same", "bias_constraint": null, "bias_regularizer": null, "dtype": "float32", "dilation_rate": [1, 1], "strides": [1, 1]}, "name": "block_1_expand", "inbound_nodes": [[["expanded_conv_project_BN", 0, 0, {}]]]}, {"class_name": "BatchNormalization", "config": {"gamma_constraint": null, "beta_regularizer": null, "trainable": false, "scale": true, "gamma_regularizer": null, "beta_constraint": null, "gamma_initializer": {"class_name": "Ones", "config": {}}, "epsilon": 0.001, "name": "block_1_expand_BN", "moving_variance_initializer": {"class_name": "Ones", "config": {}}, "momentum": 0.999, "center": true, "dtype": "float32", "axis": -1, "moving_mean_initializer": {"class_name": "Zeros", "config": {}}, "beta_initializer": {"class_name": "Zeros", "config": {}}}, "name": "block_1_expand_BN", "inbound_nodes": [[["block_1_expand", 0, 0, {}]]]}, {"class_name": "ReLU", "config": {"name": "block_1_expand_relu", "dtype": "float32", "threshold": 0.0, "trainable": false, "max_value": 6.0, "negative_slope": 0.0}, "name": "block_1_expand_relu", "inbound_nodes": [[["block_1_expand_BN", 0, 0, {}]]]}, {"class_name": "ZeroPadding2D", "config": {"name": "block_1_pad", "dtype": "float32", "data_format": "channels_last", "trainable": false, "padding": [[0, 1], [0, 1]]}, "name": "block_1_pad", "inbound_nodes": [[["block_1_expand_relu", 0, 0, {}]]]}, {"class_name": "DepthwiseConv2D", "config": {"data_format": "channels_last", "trainable": false, "depth_multiplier": 1, "bias_initializer": {"class_name": "Zeros", "config": {}}, "depthwise_constraint": null, "activation": "linear", "use_bias": false, "name": "block_1_depthwise", "kernel_size": [3, 3], "activity_regularizer": null, "padding": "valid", "bias_constraint": null, "bias_regularizer": null, "depthwise_regularizer": null, "dtype": "float32", "depthwise_initializer": {"class_name": "GlorotUniform", "config": {"seed": null}}, "dilation_rate": [1, 1], "strides": [2, 2]}, "name": "block_1_depthwise", "inbound_nodes": [[["block_1_pad", 0, 0, {}]]]}, {"class_name": "BatchNormalization", "config": {"gamma_constraint": null, "beta_regularizer": null, "trainable": false, "scale": true, "gamma_regularizer": null, "beta_constraint": null, "gamma_initializer": {"class_name": "Ones", "config": {}}, "epsilon": 0.001, "name": "block_1_depthwise_BN", "moving_variance_initializer": {"class_name": "Ones", "config": {}}, "momentum": 0.999, "center": true, "dtype": "float32", "axis": -1, "moving_mean_initializer": {"class_name": "Zeros", "config": {}}, "beta_initializer": {"class_name": "Zeros", "config": {}}}, "name": "block_1_depthwise_BN", "inbound_nodes": [[["block_1_depthwise", 0, 0, {}]]]}, {"class_name": "ReLU", "config": {"name": "block_1_depthwise_relu", "dtype": "float32", "threshold": 0.0, "trainable": false, "max_value": 6.0, "negative_slope": 0.0}, "name": "block_1_depthwise_relu", "inbound_nodes": [[["block_1_depthwise_BN", 0, 0, {}]]]}, {"class_name": "Conv2D", "config": {"groups": 1, "data_format": "channels_last", "trainable": false, "bias_initializer": {"class_name": "Zeros", "config": {}}, "activation": "linear", "kernel_constraint": null, "kernel_regularizer": null, "filters": 24, "use_bias": false, "name": "block_1_project", "kernel_size": [1, 1], "kernel_initializer": {"class_name": "GlorotUniform", "config": {"seed": null}}, "activity_regularizer": null, "padding": "same", "bias_constraint": null, "bias_regularizer": null, "dtype": "float32", "dilation_rate": [1, 1], "strides": [1, 1]}, "name": "block_1_project", "inbound_nodes": [[["block_1_depthwise_relu", 0, 0, {}]]]}, {"class_name": "BatchNormalization", "config": {"gamma_constraint": null, "beta_regularizer": null, "trainable": false, "scale": true, "gamma_regularizer": null, "beta_constraint": null, "gamma_initializer": {"class_name": "Ones", "config": {}}, "epsilon": 0.001, "name": "block_1_project_BN", "moving_variance_initializer": {"class_name": "Ones", "config": {}}, "momentum": 0.999, "center": true, "dtype": "float32", "axis": -1, "moving_mean_initializer": {"class_name": "Zeros", "config": {}}, "beta_initializer": {"class_name": "Zeros", "config": {}}}, "name": "block_1_project_BN", "inbound_nodes": [[["block_1_project", 0, 0, {}]]]}, {"class_name": "Conv2D", "config": {"groups": 1, "data_format": "channels_last", "trainable": false, "bias_initializer": {"class_name": "Zeros", "config": {}}, "activation": "linear", "kernel_constraint": null, "kernel_regularizer": null, "filters": 144, "use_bias": false, "name": "block_2_expand", "kernel_size": [1, 1], "kernel_initializer": {"class_name": "GlorotUniform", "config": {"seed": null}}, "activity_regularizer": null, "padding": "same", "bias_constraint": null, "bias_regularizer": null, "dtype": "float32", "dilation_rate": [1, 1], "strides": [1, 1]}, "name": "block_2_expand", "inbound_nodes": [[["block_1_project_BN", 0, 0, {}]]]}, {"class_name": "BatchNormalization", "config": {"gamma_constraint": null, "beta_regularizer": null, "trainable": false, "scale": true, "gamma_regularizer": null, "beta_constraint": null, "gamma_initializer": {"class_name": "Ones", "config": {}}, "epsilon": 0.001, "name": "block_2_expand_BN", "moving_variance_initializer": {"class_name": "Ones", "config": {}}, "momentum": 0.999, "center": true, "dtype": "float32", "axis": -1, "moving_mean_initializer": {"class_name": "Zeros", "config": {}}, "beta_initializer": {"class_name": "Zeros", "config": {}}}, "name": "block_2_expand_BN", "inbound_nodes": [[["block_2_expand", 0, 0, {}]]]}, {"class_name": "ReLU", "config": {"name": "block_2_expand_relu", "dtype": "float32", "threshold": 0.0, "trainable": false, "max_value": 6.0, "negative_slope": 0.0}, "name": "block_2_expand_relu", "inbound_nodes": [[["block_2_expand_BN", 0, 0, {}]]]}, {"class_name": "DepthwiseConv2D", "config": {"data_format": "channels_last", "trainable": false, "depth_multiplier": 1, "bias_initializer": {"class_name": "Zeros", "config": {}}, "depthwise_constraint": null, "activation": "linear", "use_bias": false, "name": "block_2_depthwise", "kernel_size": [3, 3], "activity_regularizer": null, "padding": "same", "bias_constraint": null, "bias_regularizer": null, "depthwise_regularizer": null, "dtype": "float32", "depthwise_initializer": {"class_name": "GlorotUniform", "config": {"seed": null}}, "dilation_rate": [1, 1], "strides": [1, 1]}, "name": "block_2_depthwise", "inbound_nodes": [[["block_2_expand_relu", 0, 0, {}]]]}, {"class_name": "BatchNormalization", "config": {"gamma_constraint": null, "beta_regularizer": null, "trainable": false, "scale": true, "gamma_regularizer": null, "beta_constraint": null, "gamma_initializer": {"class_name": "Ones", "config": {}}, "epsilon": 0.001, "name": "block_2_depthwise_BN", "moving_variance_initializer": {"class_name": "Ones", "config": {}}, "momentum": 0.999, "center": true, "dtype": "float32", "axis": -1, "moving_mean_initializer": {"class_name": "Zeros", "config": {}}, "beta_initializer": {"class_name": "Zeros", "config": {}}}, "name": "block_2_depthwise_BN", "inbound_nodes": [[["block_2_depthwise", 0, 0, {}]]]}, {"class_name": "ReLU", "config": {"name": "block_2_depthwise_relu", "dtype": "float32", "threshold": 0.0, "trainable": false, "max_value": 6.0, "negative_slope": 0.0}, "name": "block_2_depthwise_relu", "inbound_nodes": [[["block_2_depthwise_BN", 0, 0, {}]]]}, {"class_name": "Conv2D", "config": {"groups": 1, "data_format": "channels_last", "trainable": false, "bias_initializer": {"class_name": "Zeros", "config": {}}, "activation": "linear", "kernel_constraint": null, "kernel_regularizer": null, "filters": 24, "use_bias": false, "name": "block_2_project", "kernel_size": [1, 1], "kernel_initializer": {"class_name": "GlorotUniform", "config": {"seed": null}}, "activity_regularizer": null, "padding": "same", "bias_constraint": null, "bias_regularizer": null, "dtype": "float32", "dilation_rate": [1, 1], "strides": [1, 1]}, "name": "block_2_project", "inbound_nodes": [[["block_2_depthwise_relu", 0, 0, {}]]]}, {"class_name": "BatchNormalization", "config": {"gamma_constraint": null, "beta_regularizer": null, "trainable": false, "scale": true, "gamma_regularizer": null, "beta_constraint": null, "gamma_initializer": {"class_name": "Ones", "config": {}}, "epsilon": 0.001, "name": "block_2_project_BN", "moving_variance_initializer": {"class_name": "Ones", "config": {}}, "momentum": 0.999, "center": true, "dtype": "float32", "axis": -1, "moving_mean_initializer": {"class_name": "Zeros", "config": {}}, "beta_initializer": {"class_name": "Zeros", "config": {}}}, "name": "block_2_project_BN", "inbound_nodes": [[["block_2_project", 0, 0, {}]]]}, {"class_name": "Add", "config": {"name": "block_2_add", "dtype": "float32", "trainable": false}, "name": "block_2_add", "inbound_nodes": [[["block_1_project_BN", 0, 0, {}], ["block_2_project_BN", 0, 0, {}]]]}, {"class_name": "Conv2D", "config": {"groups": 1, "data_format": "channels_last", "trainable": false, "bias_initializer": {"class_name": "Zeros", "config": {}}, "activation": "linear", "kernel_constraint": null, "kernel_regularizer": null, "filters": 144, "use_bias": false, "name": "block_3_expand", "kernel_size": [1, 1], "kernel_initializer": {"class_name": "GlorotUniform", "config": {"seed": null}}, "activity_regularizer": null, "padding": "same", "bias_constraint": null, "bias_regularizer": null, "dtype": "float32", "dilation_rate": [1, 1], "strides": [1, 1]}, "name": "block_3_expand", "inbound_nodes": [[["block_2_add", 0, 0, {}]]]}, {"class_name": "BatchNormalization", "config": {"gamma_constraint": null, "beta_regularizer": null, "trainable": false, "scale": true, "gamma_regularizer": null, "beta_constraint": null, "gamma_initializer": {"class_name": "Ones", "config": {}}, "epsilon": 0.001, "name": "block_3_expand_BN", "moving_variance_initializer": {"class_name": "Ones", "config": {}}, "momentum": 0.999, "center": true, "dtype": "float32", "axis": -1, "moving_mean_initializer": {"class_name": "Zeros", "config": {}}, "beta_initializer": {"class_name": "Zeros", "config": {}}}, "name": "block_3_expand_BN", "inbound_nodes": [[["block_3_expand", 0, 0, {}]]]}, {"class_name": "ReLU", "config": {"name": "block_3_expand_relu", "dtype": "float32", "threshold": 0.0, "trainable": false, "max_value": 6.0, "negative_slope": 0.0}, "name": "block_3_expand_relu", "inbound_nodes": [[["block_3_expand_BN", 0, 0, {}]]]}, {"class_name": "ZeroPadding2D", "config": {"name": "block_3_pad", "dtype": "float32", "data_format": "channels_last", "trainable": false, "padding": [[0, 1], [0, 1]]}, "name": "block_3_pad", "inbound_nodes": [[["block_3_expand_relu", 0, 0, {}]]]}, {"class_name": "DepthwiseConv2D", "config": {"data_format": "channels_last", "trainable": false, "depth_multiplier": 1, "bias_initializer": {"class_name": "Zeros", "config": {}}, "depthwise_constraint": null, "activation": "linear", "use_bias": false, "name": "block_3_depthwise", "kernel_size": [3, 3], "activity_regularizer": null, "padding": "valid", "bias_constraint": null, "bias_regularizer": null, "depthwise_regularizer": null, "dtype": "float32", "depthwise_initializer": {"class_name": "GlorotUniform", "config": {"seed": null}}, "dilation_rate": [1, 1], "strides": [2, 2]}, "name": "block_3_depthwise", "inbound_nodes": [[["block_3_pad", 0, 0, {}]]]}, {"class_name": "BatchNormalization", "config": {"gamma_constraint": null, "beta_regularizer": null, "trainable": false, "scale": true, "gamma_regularizer": null, "beta_constraint": null, "gamma_initializer": {"class_name": "Ones", "config": {}}, "epsilon": 0.001, "name": "block_3_depthwise_BN", "moving_variance_initializer": {"class_name": "Ones", "config": {}}, "momentum": 0.999, "center": true, "dtype": "float32", "axis": -1, "moving_mean_initializer": {"class_name": "Zeros", "config": {}}, "beta_initializer": {"class_name": "Zeros", "config": {}}}, "name": "block_3_depthwise_BN", "inbound_nodes": [[["block_3_depthwise", 0, 0, {}]]]}, {"class_name": "ReLU", "config": {"name": "block_3_depthwise_relu", "dtype": "float32", "threshold": 0.0, "trainable": false, "max_value": 6.0, "negative_slope": 0.0}, "name": "block_3_depthwise_relu", "inbound_nodes": [[["block_3_depthwise_BN", 0, 0, {}]]]}, {"class_name": "Conv2D", "config": {"groups": 1, "data_format": "channels_last", "trainable": false, "bias_initializer": {"class_name": "Zeros", "config": {}}, "activation": "linear", "kernel_constraint": null, "kernel_regularizer": null, "filters": 32, "use_bias": false, "name": "block_3_project", "kernel_size": [1, 1], "kernel_initializer": {"class_name": "GlorotUniform", "config": {"seed": null}}, "activity_regularizer": null, "padding": "same", "bias_constraint": null, "bias_regularizer": null, "dtype": "float32", "dilation_rate": [1, 1], "strides": [1, 1]}, "name": "block_3_project", "inbound_nodes": [[["block_3_depthwise_relu", 0, 0, {}]]]}, {"class_name": "BatchNormalization", "config": {"gamma_constraint": null, "beta_regularizer": null, "trainable": false, "scale": true, "gamma_regularizer": null, "beta_constraint": null, "gamma_initializer": {"class_name": "Ones", "config": {}}, "epsilon": 0.001, "name": "block_3_project_BN", "moving_variance_initializer": {"class_name": "Ones", "config": {}}, "momentum": 0.999, "center": true, "dtype": "float32", "axis": -1, "moving_mean_initializer": {"class_name": "Zeros", "config": {}}, "beta_initializer": {"class_name": "Zeros", "config": {}}}, "name": "block_3_project_BN", "inbound_nodes": [[["block_3_project", 0, 0, {}]]]}, {"class_name": "Conv2D", "config": {"groups": 1, "data_format": "channels_last", "trainable": false, "bias_initializer": {"class_name": "Zeros", "config": {}}, "activation": "linear", "kernel_constraint": null, "kernel_regularizer": null, "filters": 192, "use_bias": false, "name": "block_4_expand", "kernel_size": [1, 1], "kernel_initializer": {"class_name": "GlorotUniform", "config": {"seed": null}}, "activity_regularizer": null, "padding": "same", "bias_constraint": null, "bias_regularizer": null, "dtype": "float32", "dilation_rate": [1, 1], "strides": [1, 1]}, "name": "block_4_expand", "inbound_nodes": [[["block_3_project_BN", 0, 0, {}]]]}, {"class_name": "BatchNormalization", "config": {"gamma_constraint": null, "beta_regularizer": null, "trainable": false, "scale": true, "gamma_regularizer": null, "beta_constraint": null, "gamma_initializer": {"class_name": "Ones", "config": {}}, "epsilon": 0.001, "name": "block_4_expand_BN", "moving_variance_initializer": {"class_name": "Ones", "config": {}}, "momentum": 0.999, "center": true, "dtype": "float32", "axis": -1, "moving_mean_initializer": {"class_name": "Zeros", "config": {}}, "beta_initializer": {"class_name": "Zeros", "config": {}}}, "name": "block_4_expand_BN", "inbound_nodes": [[["block_4_expand", 0, 0, {}]]]}, {"class_name": "ReLU", "config": {"name": "block_4_expand_relu", "dtype": "float32", "threshold": 0.0, "trainable": false, "max_value": 6.0, "negative_slope": 0.0}, "name": "block_4_expand_relu", "inbound_nodes": [[["block_4_expand_BN", 0, 0, {}]]]}, {"class_name": "DepthwiseConv2D", "config": {"data_format": "channels_last", "trainable": false, "depth_multiplier": 1, "bias_initializer": {"class_name": "Zeros", "config": {}}, "depthwise_constraint": null, "activation": "linear", "use_bias": false, "name": "block_4_depthwise", "kernel_size": [3, 3], "activity_regularizer": null, "padding": "same", "bias_constraint": null, "bias_regularizer": null, "depthwise_regularizer": null, "dtype": "float32", "depthwise_initializer": {"class_name": "GlorotUniform", "config": {"seed": null}}, "dilation_rate": [1, 1], "strides": [1, 1]}, "name": "block_4_depthwise", "inbound_nodes": [[["block_4_expand_relu", 0, 0, {}]]]}, {"class_name": "BatchNormalization", "config": {"gamma_constraint": null, "beta_regularizer": null, "trainable": false, "scale": true, "gamma_regularizer": null, "beta_constraint": null, "gamma_initializer": {"class_name": "Ones", "config": {}}, "epsilon": 0.001, "name": "block_4_depthwise_BN", "moving_variance_initializer": {"class_name": "Ones", "config": {}}, "momentum": 0.999, "center": true, "dtype": "float32", "axis": -1, "moving_mean_initializer": {"class_name": "Zeros", "config": {}}, "beta_initializer": {"class_name": "Zeros", "config": {}}}, "name": "block_4_depthwise_BN", "inbound_nodes": [[["block_4_depthwise", 0, 0, {}]]]}, {"class_name": "ReLU", "config": {"name": "block_4_depthwise_relu", "dtype": "float32", "threshold": 0.0, "trainable": false, "max_value": 6.0, "negative_slope": 0.0}, "name": "block_4_depthwise_relu", "inbound_nodes": [[["block_4_depthwise_BN", 0, 0, {}]]]}, {"class_name": "Conv2D", "config": {"groups": 1, "data_format": "channels_last", "trainable": false, "bias_initializer": {"class_name": "Zeros", "config": {}}, "activation": "linear", "kernel_constraint": null, "kernel_regularizer": null, "filters": 32, "use_bias": false, "name": "block_4_project", "kernel_size": [1, 1], "kernel_initializer": {"class_name": "GlorotUniform", "config": {"seed": null}}, "activity_regularizer": null, "padding": "same", "bias_constraint": null, "bias_regularizer": null, "dtype": "float32", "dilation_rate": [1, 1], "strides": [1, 1]}, "name": "block_4_project", "inbound_nodes": [[["block_4_depthwise_relu", 0, 0, {}]]]}, {"class_name": "BatchNormalization", "config": {"gamma_constraint": null, "beta_regularizer": null, "trainable": false, "scale": true, "gamma_regularizer": null, "beta_constraint": null, "gamma_initializer": {"class_name": "Ones", "config": {}}, "epsilon": 0.001, "name": "block_4_project_BN", "moving_variance_initializer": {"class_name": "Ones", "config": {}}, "momentum": 0.999, "center": true, "dtype": "float32", "axis": -1, "moving_mean_initializer": {"class_name": "Zeros", "config": {}}, "beta_initializer": {"class_name": "Zeros", "config": {}}}, "name": "block_4_project_BN", "inbound_nodes": [[["block_4_project", 0, 0, {}]]]}, {"class_name": "Add", "config": {"name": "block_4_add", "dtype": "float32", "trainable": false}, "name": "block_4_add", "inbound_nodes": [[["block_3_project_BN", 0, 0, {}], ["block_4_project_BN", 0, 0, {}]]]}, {"class_name": "Conv2D", "config": {"groups": 1, "data_format": "channels_last", "trainable": false, "bias_initializer": {"class_name": "Zeros", "config": {}}, "activation": "linear", "kernel_constraint": null, "kernel_regularizer": null, "filters": 192, "use_bias": false, "name": "block_5_expand", "kernel_size": [1, 1], "kernel_initializer": {"class_name": "GlorotUniform", "config": {"seed": null}}, "activity_regularizer": null, "padding": "same", "bias_constraint": null, "bias_regularizer": null, "dtype": "float32", "dilation_rate": [1, 1], "strides": [1, 1]}, "name": "block_5_expand", "inbound_nodes": [[["block_4_add", 0, 0, {}]]]}, {"class_name": "BatchNormalization", "config": {"gamma_constraint": null, "beta_regularizer": null, "trainable": false, "scale": true, "gamma_regularizer": null, "beta_constraint": null, "gamma_initializer": {"class_name": "Ones", "config": {}}, "epsilon": 0.001, "name": "block_5_expand_BN", "moving_variance_initializer": {"class_name": "Ones", "config": {}}, "momentum": 0.999, "center": true, "dtype": "float32", "axis": -1, "moving_mean_initializer": {"class_name": "Zeros", "config": {}}, "beta_initializer": {"class_name": "Zeros", "config": {}}}, "name": "block_5_expand_BN", "inbound_nodes": [[["block_5_expand", 0, 0, {}]]]}, {"class_name": "ReLU", "config": {"name": "block_5_expand_relu", "dtype": "float32", "threshold": 0.0, "trainable": false, "max_value": 6.0, "negative_slope": 0.0}, "name": "block_5_expand_relu", "inbound_nodes": [[["block_5_expand_BN", 0, 0, {}]]]}, {"class_name": "DepthwiseConv2D", "config": {"data_format": "channels_last", "trainable": false, "depth_multiplier": 1, "bias_initializer": {"class_name": "Zeros", "config": {}}, "depthwise_constraint": null, "activation": "linear", "use_bias": false, "name": "block_5_depthwise", "kernel_size": [3, 3], "activity_regularizer": null, "padding": "same", "bias_constraint": null, "bias_regularizer": null, "depthwise_regularizer": null, "dtype": "float32", "depthwise_initializer": {"class_name": "GlorotUniform", "config": {"seed": null}}, "dilation_rate": [1, 1], "strides": [1, 1]}, "name": "block_5_depthwise", "inbound_nodes": [[["block_5_expand_relu", 0, 0, {}]]]}, {"class_name": "BatchNormalization", "config": {"gamma_constraint": null, "beta_regularizer": null, "trainable": false, "scale": true, "gamma_regularizer": null, "beta_constraint": null, "gamma_initializer": {"class_name": "Ones", "config": {}}, "epsilon": 0.001, "name": "block_5_depthwise_BN", "moving_variance_initializer": {"class_name": "Ones", "config": {}}, "momentum": 0.999, "center": true, "dtype": "float32", "axis": -1, "moving_mean_initializer": {"class_name": "Zeros", "config": {}}, "beta_initializer": {"class_name": "Zeros", "config": {}}}, "name": "block_5_depthwise_BN", "inbound_nodes": [[["block_5_depthwise", 0, 0, {}]]]}, {"class_name": "ReLU", "config": {"name": "block_5_depthwise_relu", "dtype": "float32", "threshold": 0.0, "trainable": false, "max_value": 6.0, "negative_slope": 0.0}, "name": "block_5_depthwise_relu", "inbound_nodes": [[["block_5_depthwise_BN", 0, 0, {}]]]}, {"class_name": "Conv2D", "config": {"groups": 1, "data_format": "channels_last", "trainable": false, "bias_initializer": {"class_name": "Zeros", "config": {}}, "activation": "linear", "kernel_constraint": null, "kernel_regularizer": null, "filters": 32, "use_bias": false, "name": "block_5_project", "kernel_size": [1, 1], "kernel_initializer": {"class_name": "GlorotUniform", "config": {"seed": null}}, "activity_regularizer": null, "padding": "same", "bias_constraint": null, "bias_regularizer": null, "dtype": "float32", "dilation_rate": [1, 1], "strides": [1, 1]}, "name": "block_5_project", "inbound_nodes": [[["block_5_depthwise_relu", 0, 0, {}]]]}, {"class_name": "BatchNormalization", "config": {"gamma_constraint": null, "beta_regularizer": null, "trainable": false, "scale": true, "gamma_regularizer": null, "beta_constraint": null, "gamma_initializer": {"class_name": "Ones", "config": {}}, "epsilon": 0.001, "name": "block_5_project_BN", "moving_variance_initializer": {"class_name": "Ones", "config": {}}, "momentum": 0.999, "center": true, "dtype": "float32", "axis": -1, "moving_mean_initializer": {"class_name": "Zeros", "config": {}}, "beta_initializer": {"class_name": "Zeros", "config": {}}}, "name": "block_5_project_BN", "inbound_nodes": [[["block_5_project", 0, 0, {}]]]}, {"class_name": "Add", "config": {"name": "block_5_add", "dtype": "float32", "trainable": false}, "name": "block_5_add", "inbound_nodes": [[["block_4_add", 0, 0, {}], ["block_5_project_BN", 0, 0, {}]]]}, {"class_name": "Conv2D", "config": {"groups": 1, "data_format": "channels_last", "trainable": false, "bias_initializer": {"class_name": "Zeros", "config": {}}, "activation": "linear", "kernel_constraint": null, "kernel_regularizer": null, "filters": 192, "use_bias": false, "name": "block_6_expand", "kernel_size": [1, 1], "kernel_initializer": {"class_name": "GlorotUniform", "config": {"seed": null}}, "activity_regularizer": null, "padding": "same", "bias_constraint": null, "bias_regularizer": null, "dtype": "float32", "dilation_rate": [1, 1], "strides": [1, 1]}, "name": "block_6_expand", "inbound_nodes": [[["block_5_add", 0, 0, {}]]]}, {"class_name": "BatchNormalization", "config": {"gamma_constraint": null, "beta_regularizer": null, "trainable": false, "scale": true, "gamma_regularizer": null, "beta_constraint": null, "gamma_initializer": {"class_name": "Ones", "config": {}}, "epsilon": 0.001, "name": "block_6_expand_BN", "moving_variance_initializer": {"class_name": "Ones", "config": {}}, "momentum": 0.999, "center": true, "dtype": "float32", "axis": -1, "moving_mean_initializer": {"class_name": "Zeros", "config": {}}, "beta_initializer": {"class_name": "Zeros", "config": {}}}, "name": "block_6_expand_BN", "inbound_nodes": [[["block_6_expand", 0, 0, {}]]]}, {"class_name": "ReLU", "config": {"name": "block_6_expand_relu", "dtype": "float32", "threshold": 0.0, "trainable": false, "max_value": 6.0, "negative_slope": 0.0}, "name": "block_6_expand_relu", "inbound_nodes": [[["block_6_expand_BN", 0, 0, {}]]]}, {"class_name": "ZeroPadding2D", "config": {"name": "block_6_pad", "dtype": "float32", "data_format": "channels_last", "trainable": false, "padding": [[0, 1], [0, 1]]}, "name": "block_6_pad", "inbound_nodes": [[["block_6_expand_relu", 0, 0, {}]]]}, {"class_name": "DepthwiseConv2D", "config": {"data_format": "channels_last", "trainable": false, "depth_multiplier": 1, "bias_initializer": {"class_name": "Zeros", "config": {}}, "depthwise_constraint": null, "activation": "linear", "use_bias": false, "name": "block_6_depthwise", "kernel_size": [3, 3], "activity_regularizer": null, "padding": "valid", "bias_constraint": null, "bias_regularizer": null, "depthwise_regularizer": null, "dtype": "float32", "depthwise_initializer": {"class_name": "GlorotUniform", "config": {"seed": null}}, "dilation_rate": [1, 1], "strides": [2, 2]}, "name": "block_6_depthwise", "inbound_nodes": [[["block_6_pad", 0, 0, {}]]]}, {"class_name": "BatchNormalization", "config": {"gamma_constraint": null, "beta_regularizer": null, "trainable": false, "scale": true, "gamma_regularizer": null, "beta_constraint": null, "gamma_initializer": {"class_name": "Ones", "config": {}}, "epsilon": 0.001, "name": "block_6_depthwise_BN", "moving_variance_initializer": {"class_name": "Ones", "config": {}}, "momentum": 0.999, "center": true, "dtype": "float32", "axis": -1, "moving_mean_initializer": {"class_name": "Zeros", "config": {}}, "beta_initializer": {"class_name": "Zeros", "config": {}}}, "name": "block_6_depthwise_BN", "inbound_nodes": [[["block_6_depthwise", 0, 0, {}]]]}, {"class_name": "ReLU", "config": {"name": "block_6_depthwise_relu", "dtype": "float32", "threshold": 0.0, "trainable": false, "max_value": 6.0, "negative_slope": 0.0}, "name": "block_6_depthwise_relu", "inbound_nodes": [[["block_6_depthwise_BN", 0, 0, {}]]]}, {"class_name": "Conv2D", "config": {"groups": 1, "data_format": "channels_last", "trainable": false, "bias_initializer": {"class_name": "Zeros", "config": {}}, "activation": "linear", "kernel_constraint": null, "kernel_regularizer": null, "filters": 64, "use_bias": false, "name": "block_6_project", "kernel_size": [1, 1], "kernel_initializer": {"class_name": "GlorotUniform", "config": {"seed": null}}, "activity_regularizer": null, "padding": "same", "bias_constraint": null, "bias_regularizer": null, "dtype": "float32", "dilation_rate": [1, 1], "strides": [1, 1]}, "name": "block_6_project", "inbound_nodes": [[["block_6_depthwise_relu", 0, 0, {}]]]}, {"class_name": "BatchNormalization", "config": {"gamma_constraint": null, "beta_regularizer": null, "trainable": false, "scale": true, "gamma_regularizer": null, "beta_constraint": null, "gamma_initializer": {"class_name": "Ones", "config": {}}, "epsilon": 0.001, "name": "block_6_project_BN", "moving_variance_initializer": {"class_name": "Ones", "config": {}}, "momentum": 0.999, "center": true, "dtype": "float32", "axis": -1, "moving_mean_initializer": {"class_name": "Zeros", "config": {}}, "beta_initializer": {"class_name": "Zeros", "config": {}}}, "name": "block_6_project_BN", "inbound_nodes": [[["block_6_project", 0, 0, {}]]]}, {"class_name": "Conv2D", "config": {"groups": 1, "data_format": "channels_last", "trainable": false, "bias_initializer": {"class_name": "Zeros", "config": {}}, "activation": "linear", "kernel_constraint": null, "kernel_regularizer": null, "filters": 384, "use_bias": false, "name": "block_7_expand", "kernel_size": [1, 1], "kernel_initializer": {"class_name": "GlorotUniform", "config": {"seed": null}}, "activity_regularizer": null, "padding": "same", "bias_constraint": null, "bias_regularizer": null, "dtype": "float32", "dilation_rate": [1, 1], "strides": [1, 1]}, "name": "block_7_expand", "inbound_nodes": [[["block_6_project_BN", 0, 0, {}]]]}, {"class_name": "BatchNormalization", "config": {"gamma_constraint": null, "beta_regularizer": null, "trainable": false, "scale": true, "gamma_regularizer": null, "beta_constraint": null, "gamma_initializer": {"class_name": "Ones", "config": {}}, "epsilon": 0.001, "name": "block_7_expand_BN", "moving_variance_initializer": {"class_name": "Ones", "config": {}}, "momentum": 0.999, "center": true, "dtype": "float32", "axis": -1, "moving_mean_initializer": {"class_name": "Zeros", "config": {}}, "beta_initializer": {"class_name": "Zeros", "config": {}}}, "name": "block_7_expand_BN", "inbound_nodes": [[["block_7_expand", 0, 0, {}]]]}, {"class_name": "ReLU", "config": {"name": "block_7_expand_relu", "dtype": "float32", "threshold": 0.0, "trainable": false, "max_value": 6.0, "negative_slope": 0.0}, "name": "block_7_expand_relu", "inbound_nodes": [[["block_7_expand_BN", 0, 0, {}]]]}, {"class_name": "DepthwiseConv2D", "config": {"data_format": "channels_last", "trainable": false, "depth_multiplier": 1, "bias_initializer": {"class_name": "Zeros", "config": {}}, "depthwise_constraint": null, "activation": "linear", "use_bias": false, "name": "block_7_depthwise", "kernel_size": [3, 3], "activity_regularizer": null, "padding": "same", "bias_constraint": null, "bias_regularizer": null, "depthwise_regularizer": null, "dtype": "float32", "depthwise_initializer": {"class_name": "GlorotUniform", "config": {"seed": null}}, "dilation_rate": [1, 1], "strides": [1, 1]}, "name": "block_7_depthwise", "inbound_nodes": [[["block_7_expand_relu", 0, 0, {}]]]}, {"class_name": "BatchNormalization", "config": {"gamma_constraint": null, "beta_regularizer": null, "trainable": false, "scale": true, "gamma_regularizer": null, "beta_constraint": null, "gamma_initializer": {"class_name": "Ones", "config": {}}, "epsilon": 0.001, "name": "block_7_depthwise_BN", "moving_variance_initializer": {"class_name": "Ones", "config": {}}, "momentum": 0.999, "center": true, "dtype": "float32", "axis": -1, "moving_mean_initializer": {"class_name": "Zeros", "config": {}}, "beta_initializer": {"class_name": "Zeros", "config": {}}}, "name": "block_7_depthwise_BN", "inbound_nodes": [[["block_7_depthwise", 0, 0, {}]]]}, {"class_name": "ReLU", "config": {"name": "block_7_depthwise_relu", "dtype": "float32", "threshold": 0.0, "trainable": false, "max_value": 6.0, "negative_slope": 0.0}, "name": "block_7_depthwise_relu", "inbound_nodes": [[["block_7_depthwise_BN", 0, 0, {}]]]}, {"class_name": "Conv2D", "config": {"groups": 1, "data_format": "channels_last", "trainable": false, "bias_initializer": {"class_name": "Zeros", "config": {}}, "activation": "linear", "kernel_constraint": null, "kernel_regularizer": null, "filters": 64, "use_bias": false, "name": "block_7_project", "kernel_size": [1, 1], "kernel_initializer": {"class_name": "GlorotUniform", "config": {"seed": null}}, "activity_regularizer": null, "padding": "same", "bias_constraint": null, "bias_regularizer": null, "dtype": "float32", "dilation_rate": [1, 1], "strides": [1, 1]}, "name": "block_7_project", "inbound_nodes": [[["block_7_depthwise_relu", 0, 0, {}]]]}, {"class_name": "BatchNormalization", "config": {"gamma_constraint": null, "beta_regularizer": null, "trainable": false, "scale": true, "gamma_regularizer": null, "beta_constraint": null, "gamma_initializer": {"class_name": "Ones", "config": {}}, "epsilon": 0.001, "name": "block_7_project_BN", "moving_variance_initializer": {"class_name": "Ones", "config": {}}, "momentum": 0.999, "center": true, "dtype": "float32", "axis": -1, "moving_mean_initializer": {"class_name": "Zeros", "config": {}}, "beta_initializer": {"class_name": "Zeros", "config": {}}}, "name": "block_7_project_BN", "inbound_nodes": [[["block_7_project", 0, 0, {}]]]}, {"class_name": "Add", "config": {"name": "block_7_add", "dtype": "float32", "trainable": false}, "name": "block_7_add", "inbound_nodes": [[["block_6_project_BN", 0, 0, {}], ["block_7_project_BN", 0, 0, {}]]]}, {"class_name": "Conv2D", "config": {"groups": 1, "data_format": "channels_last", "trainable": false, "bias_initializer": {"class_name": "Zeros", "config": {}}, "activation": "linear", "kernel_constraint": null, "kernel_regularizer": null, "filters": 384, "use_bias": false, "name": "block_8_expand", "kernel_size": [1, 1], "kernel_initializer": {"class_name": "GlorotUniform", "config": {"seed": null}}, "activity_regularizer": null, "padding": "same", "bias_constraint": null, "bias_regularizer": null, "dtype": "float32", "dilation_rate": [1, 1], "strides": [1, 1]}, "name": "block_8_expand", "inbound_nodes": [[["block_7_add", 0, 0, {}]]]}, {"class_name": "BatchNormalization", "config": {"gamma_constraint": null, "beta_regularizer": null, "trainable": false, "scale": true, "gamma_regularizer": null, "beta_constraint": null, "gamma_initializer": {"class_name": "Ones", "config": {}}, "epsilon": 0.001, "name": "block_8_expand_BN", "moving_variance_initializer": {"class_name": "Ones", "config": {}}, "momentum": 0.999, "center": true, "dtype": "float32", "axis": -1, "moving_mean_initializer": {"class_name": "Zeros", "config": {}}, "beta_initializer": {"class_name": "Zeros", "config": {}}}, "name": "block_8_expand_BN", "inbound_nodes": [[["block_8_expand", 0, 0, {}]]]}, {"class_name": "ReLU", "config": {"name": "block_8_expand_relu", "dtype": "float32", "threshold": 0.0, "trainable": false, "max_value": 6.0, "negative_slope": 0.0}, "name": "block_8_expand_relu", "inbound_nodes": [[["block_8_expand_BN", 0, 0, {}]]]}, {"class_name": "DepthwiseConv2D", "config": {"data_format": "channels_last", "trainable": false, "depth_multiplier": 1, "bias_initializer": {"class_name": "Zeros", "config": {}}, "depthwise_constraint": null, "activation": "linear", "use_bias": false, "name": "block_8_depthwise", "kernel_size": [3, 3], "activity_regularizer": null, "padding": "same", "bias_constraint": null, "bias_regularizer": null, "depthwise_regularizer": null, "dtype": "float32", "depthwise_initializer": {"class_name": "GlorotUniform", "config": {"seed": null}}, "dilation_rate": [1, 1], "strides": [1, 1]}, "name": "block_8_depthwise", "inbound_nodes": [[["block_8_expand_relu", 0, 0, {}]]]}, {"class_name": "BatchNormalization", "config": {"gamma_constraint": null, "beta_regularizer": null, "trainable": false, "scale": true, "gamma_regularizer": null, "beta_constraint": null, "gamma_initializer": {"class_name": "Ones", "config": {}}, "epsilon": 0.001, "name": "block_8_depthwise_BN", "moving_variance_initializer": {"class_name": "Ones", "config": {}}, "momentum": 0.999, "center": true, "dtype": "float32", "axis": -1, "moving_mean_initializer": {"class_name": "Zeros", "config": {}}, "beta_initializer": {"class_name": "Zeros", "config": {}}}, "name": "block_8_depthwise_BN", "inbound_nodes": [[["block_8_depthwise", 0, 0, {}]]]}, {"class_name": "ReLU", "config": {"name": "block_8_depthwise_relu", "dtype": "float32", "threshold": 0.0, "trainable": false, "max_value": 6.0, "negative_slope": 0.0}, "name": "block_8_depthwise_relu", "inbound_nodes": [[["block_8_depthwise_BN", 0, 0, {}]]]}, {"class_name": "Conv2D", "config": {"groups": 1, "data_format": "channels_last", "trainable": false, "bias_initializer": {"class_name": "Zeros", "config": {}}, "activation": "linear", "kernel_constraint": null, "kernel_regularizer": null, "filters": 64, "use_bias": false, "name": "block_8_project", "kernel_size": [1, 1], "kernel_initializer": {"class_name": "GlorotUniform", "config": {"seed": null}}, "activity_regularizer": null, "padding": "same", "bias_constraint": null, "bias_regularizer": null, "dtype": "float32", "dilation_rate": [1, 1], "strides": [1, 1]}, "name": "block_8_project", "inbound_nodes": [[["block_8_depthwise_relu", 0, 0, {}]]]}, {"class_name": "BatchNormalization", "config": {"gamma_constraint": null, "beta_regularizer": null, "trainable": false, "scale": true, "gamma_regularizer": null, "beta_constraint": null, "gamma_initializer": {"class_name": "Ones", "config": {}}, "epsilon": 0.001, "name": "block_8_project_BN", "moving_variance_initializer": {"class_name": "Ones", "config": {}}, "momentum": 0.999, "center": true, "dtype": "float32", "axis": -1, "moving_mean_initializer": {"class_name": "Zeros", "config": {}}, "beta_initializer": {"class_name": "Zeros", "config": {}}}, "name": "block_8_project_BN", "inbound_nodes": [[["block_8_project", 0, 0, {}]]]}, {"class_name": "Add", "config": {"name": "block_8_add", "dtype": "float32", "trainable": false}, "name": "block_8_add", "inbound_nodes": [[["block_7_add", 0, 0, {}], ["block_8_project_BN", 0, 0, {}]]]}, {"class_name": "Conv2D", "config": {"groups": 1, "data_format": "channels_last", "trainable": false, "bias_initializer": {"class_name": "Zeros", "config": {}}, "activation": "linear", "kernel_constraint": null, "kernel_regularizer": null, "filters": 384, "use_bias": false, "name": "block_9_expand", "kernel_size": [1, 1], "kernel_initializer": {"class_name": "GlorotUniform", "config": {"seed": null}}, "activity_regularizer": null, "padding": "same", "bias_constraint": null, "bias_regularizer": null, "dtype": "float32", "dilation_rate": [1, 1], "strides": [1, 1]}, "name": "block_9_expand", "inbound_nodes": [[["block_8_add", 0, 0, {}]]]}, {"class_name": "BatchNormalization", "config": {"gamma_constraint": null, "beta_regularizer": null, "trainable": false, "scale": true, "gamma_regularizer": null, "beta_constraint": null, "gamma_initializer": {"class_name": "Ones", "config": {}}, "epsilon": 0.001, "name": "block_9_expand_BN", "moving_variance_initializer": {"class_name": "Ones", "config": {}}, "momentum": 0.999, "center": true, "dtype": "float32", "axis": -1, "moving_mean_initializer": {"class_name": "Zeros", "config": {}}, "beta_initializer": {"class_name": "Zeros", "config": {}}}, "name": "block_9_expand_BN", "inbound_nodes": [[["block_9_expand", 0, 0, {}]]]}, {"class_name": "ReLU", "config": {"name": "block_9_expand_relu", "dtype": "float32", "threshold": 0.0, "trainable": false, "max_value": 6.0, "negative_slope": 0.0}, "name": "block_9_expand_relu", "inbound_nodes": [[["block_9_expand_BN", 0, 0, {}]]]}, {"class_name": "DepthwiseConv2D", "config": {"data_format": "channels_last", "trainable": false, "depth_multiplier": 1, "bias_initializer": {"class_name": "Zeros", "config": {}}, "depthwise_constraint": null, "activation": "linear", "use_bias": false, "name": "block_9_depthwise", "kernel_size": [3, 3], "activity_regularizer": null, "padding": "same", "bias_constraint": null, "bias_regularizer": null, "depthwise_regularizer": null, "dtype": "float32", "depthwise_initializer": {"class_name": "GlorotUniform", "config": {"seed": null}}, "dilation_rate": [1, 1], "strides": [1, 1]}, "name": "block_9_depthwise", "inbound_nodes": [[["block_9_expand_relu", 0, 0, {}]]]}, {"class_name": "BatchNormalization", "config": {"gamma_constraint": null, "beta_regularizer": null, "trainable": false, "scale": true, "gamma_regularizer": null, "beta_constraint": null, "gamma_initializer": {"class_name": "Ones", "config": {}}, "epsilon": 0.001, "name": "block_9_depthwise_BN", "moving_variance_initializer": {"class_name": "Ones", "config": {}}, "momentum": 0.999, "center": true, "dtype": "float32", "axis": -1, "moving_mean_initializer": {"class_name": "Zeros", "config": {}}, "beta_initializer": {"class_name": "Zeros", "config": {}}}, "name": "block_9_depthwise_BN", "inbound_nodes": [[["block_9_depthwise", 0, 0, {}]]]}, {"class_name": "ReLU", "config": {"name": "block_9_depthwise_relu", "dtype": "float32", "threshold": 0.0, "trainable": false, "max_value": 6.0, "negative_slope": 0.0}, "name": "block_9_depthwise_relu", "inbound_nodes": [[["block_9_depthwise_BN", 0, 0, {}]]]}, {"class_name": "Conv2D", "config": {"groups": 1, "data_format": "channels_last", "trainable": false, "bias_initializer": {"class_name": "Zeros", "config": {}}, "activation": "linear", "kernel_constraint": null, "kernel_regularizer": null, "filters": 64, "use_bias": false, "name": "block_9_project", "kernel_size": [1, 1], "kernel_initializer": {"class_name": "GlorotUniform", "config": {"seed": null}}, "activity_regularizer": null, "padding": "same", "bias_constraint": null, "bias_regularizer": null, "dtype": "float32", "dilation_rate": [1, 1], "strides": [1, 1]}, "name": "block_9_project", "inbound_nodes": [[["block_9_depthwise_relu", 0, 0, {}]]]}, {"class_name": "BatchNormalization", "config": {"gamma_constraint": null, "beta_regularizer": null, "trainable": false, "scale": true, "gamma_regularizer": null, "beta_constraint": null, "gamma_initializer": {"class_name": "Ones", "config": {}}, "epsilon": 0.001, "name": "block_9_project_BN", "moving_variance_initializer": {"class_name": "Ones", "config": {}}, "momentum": 0.999, "center": true, "dtype": "float32", "axis": -1, "moving_mean_initializer": {"class_name": "Zeros", "config": {}}, "beta_initializer": {"class_name": "Zeros", "config": {}}}, "name": "block_9_project_BN", "inbound_nodes": [[["block_9_project", 0, 0, {}]]]}, {"class_name": "Add", "config": {"name": "block_9_add", "dtype": "float32", "trainable": false}, "name": "block_9_add", "inbound_nodes": [[["block_8_add", 0, 0, {}], ["block_9_project_BN", 0, 0, {}]]]}, {"class_name": "Conv2D", "config": {"groups": 1, "data_format": "channels_last", "trainable": false, "bias_initializer": {"class_name": "Zeros", "config": {}}, "activation": "linear", "kernel_constraint": null, "kernel_regularizer": null, "filters": 384, "use_bias": false, "name": "block_10_expand", "kernel_size": [1, 1], "kernel_initializer": {"class_name": "GlorotUniform", "config": {"seed": null}}, "activity_regularizer": null, "padding": "same", "bias_constraint": null, "bias_regularizer": null, "dtype": "float32", "dilation_rate": [1, 1], "strides": [1, 1]}, "name": "block_10_expand", "inbound_nodes": [[["block_9_add", 0, 0, {}]]]}, {"class_name": "BatchNormalization", "config": {"gamma_constraint": null, "beta_regularizer": null, "trainable": false, "scale": true, "gamma_regularizer": null, "beta_constraint": null, "gamma_initializer": {"class_name": "Ones", "config": {}}, "epsilon": 0.001, "name": "block_10_expand_BN", "moving_variance_initializer": {"class_name": "Ones", "config": {}}, "momentum": 0.999, "center": true, "dtype": "float32", "axis": -1, "moving_mean_initializer": {"class_name": "Zeros", "config": {}}, "beta_initializer": {"class_name": "Zeros", "config": {}}}, "name": "block_10_expand_BN", "inbound_nodes": [[["block_10_expand", 0, 0, {}]]]}, {"class_name": "ReLU", "config": {"name": "block_10_expand_relu", "dtype": "float32", "threshold": 0.0, "trainable": false, "max_value": 6.0, "negative_slope": 0.0}, "name": "block_10_expand_relu", "inbound_nodes": [[["block_10_expand_BN", 0, 0, {}]]]}, {"class_name": "DepthwiseConv2D", "config": {"data_format": "channels_last", "trainable": false, "depth_multiplier": 1, "bias_initializer": {"class_name": "Zeros", "config": {}}, "depthwise_constraint": null, "activation": "linear", "use_bias": false, "name": "block_10_depthwise", "kernel_size": [3, 3], "activity_regularizer": null, "padding": "same", "bias_constraint": null, "bias_regularizer": null, "depthwise_regularizer": null, "dtype": "float32", "depthwise_initializer": {"class_name": "GlorotUniform", "config": {"seed": null}}, "dilation_rate": [1, 1], "strides": [1, 1]}, "name": "block_10_depthwise", "inbound_nodes": [[["block_10_expand_relu", 0, 0, {}]]]}, {"class_name": "BatchNormalization", "config": {"gamma_constraint": null, "beta_regularizer": null, "trainable": false, "scale": true, "gamma_regularizer": null, "beta_constraint": null, "gamma_initializer": {"class_name": "Ones", "config": {}}, "epsilon": 0.001, "name": "block_10_depthwise_BN", "moving_variance_initializer": {"class_name": "Ones", "config": {}}, "momentum": 0.999, "center": true, "dtype": "float32", "axis": -1, "moving_mean_initializer": {"class_name": "Zeros", "config": {}}, "beta_initializer": {"class_name": "Zeros", "config": {}}}, "name": "block_10_depthwise_BN", "inbound_nodes": [[["block_10_depthwise", 0, 0, {}]]]}, {"class_name": "ReLU", "config": {"name": "block_10_depthwise_relu", "dtype": "float32", "threshold": 0.0, "trainable": false, "max_value": 6.0, "negative_slope": 0.0}, "name": "block_10_depthwise_relu", "inbound_nodes": [[["block_10_depthwise_BN", 0, 0, {}]]]}, {"class_name": "Conv2D", "config": {"groups": 1, "data_format": "channels_last", "trainable": false, "bias_initializer": {"class_name": "Zeros", "config": {}}, "activation": "linear", "kernel_constraint": null, "kernel_regularizer": null, "filters": 96, "use_bias": false, "name": "block_10_project", "kernel_size": [1, 1], "kernel_initializer": {"class_name": "GlorotUniform", "config": {"seed": null}}, "activity_regularizer": null, "padding": "same", "bias_constraint": null, "bias_regularizer": null, "dtype": "float32", "dilation_rate": [1, 1], "strides": [1, 1]}, "name": "block_10_project", "inbound_nodes": [[["block_10_depthwise_relu", 0, 0, {}]]]}, {"class_name": "BatchNormalization", "config": {"gamma_constraint": null, "beta_regularizer": null, "trainable": false, "scale": true, "gamma_regularizer": null, "beta_constraint": null, "gamma_initializer": {"class_name": "Ones", "config": {}}, "epsilon": 0.001, "name": "block_10_project_BN", "moving_variance_initializer": {"class_name": "Ones", "config": {}}, "momentum": 0.999, "center": true, "dtype": "float32", "axis": -1, "moving_mean_initializer": {"class_name": "Zeros", "config": {}}, "beta_initializer": {"class_name": "Zeros", "config": {}}}, "name": "block_10_project_BN", "inbound_nodes": [[["block_10_project", 0, 0, {}]]]}, {"class_name": "Conv2D", "config": {"groups": 1, "data_format": "channels_last", "trainable": false, "bias_initializer": {"class_name": "Zeros", "config": {}}, "activation": "linear", "kernel_constraint": null, "kernel_regularizer": null, "filters": 576, "use_bias": false, "name": "block_11_expand", "kernel_size": [1, 1], "kernel_initializer": {"class_name": "GlorotUniform", "config": {"seed": null}}, "activity_regularizer": null, "padding": "same", "bias_constraint": null, "bias_regularizer": null, "dtype": "float32", "dilation_rate": [1, 1], "strides": [1, 1]}, "name": "block_11_expand", "inbound_nodes": [[["block_10_project_BN", 0, 0, {}]]]}, {"class_name": "BatchNormalization", "config": {"gamma_constraint": null, "beta_regularizer": null, "trainable": false, "scale": true, "gamma_regularizer": null, "beta_constraint": null, "gamma_initializer": {"class_name": "Ones", "config": {}}, "epsilon": 0.001, "name": "block_11_expand_BN", "moving_variance_initializer": {"class_name": "Ones", "config": {}}, "momentum": 0.999, "center": true, "dtype": "float32", "axis": -1, "moving_mean_initializer": {"class_name": "Zeros", "config": {}}, "beta_initializer": {"class_name": "Zeros", "config": {}}}, "name": "block_11_expand_BN", "inbound_nodes": [[["block_11_expand", 0, 0, {}]]]}, {"class_name": "ReLU", "config": {"name": "block_11_expand_relu", "dtype": "float32", "threshold": 0.0, "trainable": false, "max_value": 6.0, "negative_slope": 0.0}, "name": "block_11_expand_relu", "inbound_nodes": [[["block_11_expand_BN", 0, 0, {}]]]}, {"class_name": "DepthwiseConv2D", "config": {"data_format": "channels_last", "trainable": false, "depth_multiplier": 1, "bias_initializer": {"class_name": "Zeros", "config": {}}, "depthwise_constraint": null, "activation": "linear", "use_bias": false, "name": "block_11_depthwise", "kernel_size": [3, 3], "activity_regularizer": null, "padding": "same", "bias_constraint": null, "bias_regularizer": null, "depthwise_regularizer": null, "dtype": "float32", "depthwise_initializer": {"class_name": "GlorotUniform", "config": {"seed": null}}, "dilation_rate": [1, 1], "strides": [1, 1]}, "name": "block_11_depthwise", "inbound_nodes": [[["block_11_expand_relu", 0, 0, {}]]]}, {"class_name": "BatchNormalization", "config": {"gamma_constraint": null, "beta_regularizer": null, "trainable": false, "scale": true, "gamma_regularizer": null, "beta_constraint": null, "gamma_initializer": {"class_name": "Ones", "config": {}}, "epsilon": 0.001, "name": "block_11_depthwise_BN", "moving_variance_initializer": {"class_name": "Ones", "config": {}}, "momentum": 0.999, "center": true, "dtype": "float32", "axis": -1, "moving_mean_initializer": {"class_name": "Zeros", "config": {}}, "beta_initializer": {"class_name": "Zeros", "config": {}}}, "name": "block_11_depthwise_BN", "inbound_nodes": [[["block_11_depthwise", 0, 0, {}]]]}, {"class_name": "ReLU", "config": {"name": "block_11_depthwise_relu", "dtype": "float32", "threshold": 0.0, "trainable": false, "max_value": 6.0, "negative_slope": 0.0}, "name": "block_11_depthwise_relu", "inbound_nodes": [[["block_11_depthwise_BN", 0, 0, {}]]]}, {"class_name": "Conv2D", "config": {"groups": 1, "data_format": "channels_last", "trainable": false, "bias_initializer": {"class_name": "Zeros", "config": {}}, "activation": "linear", "kernel_constraint": null, "kernel_regularizer": null, "filters": 96, "use_bias": false, "name": "block_11_project", "kernel_size": [1, 1], "kernel_initializer": {"class_name": "GlorotUniform", "config": {"seed": null}}, "activity_regularizer": null, "padding": "same", "bias_constraint": null, "bias_regularizer": null, "dtype": "float32", "dilation_rate": [1, 1], "strides": [1, 1]}, "name": "block_11_project", "inbound_nodes": [[["block_11_depthwise_relu", 0, 0, {}]]]}, {"class_name": "BatchNormalization", "config": {"gamma_constraint": null, "beta_regularizer": null, "trainable": false, "scale": true, "gamma_regularizer": null, "beta_constraint": null, "gamma_initializer": {"class_name": "Ones", "config": {}}, "epsilon": 0.001, "name": "block_11_project_BN", "moving_variance_initializer": {"class_name": "Ones", "config": {}}, "momentum": 0.999, "center": true, "dtype": "float32", "axis": -1, "moving_mean_initializer": {"class_name": "Zeros", "config": {}}, "beta_initializer": {"class_name": "Zeros", "config": {}}}, "name": "block_11_project_BN", "inbound_nodes": [[["block_11_project", 0, 0, {}]]]}, {"class_name": "Add", "config": {"name": "block_11_add", "dtype": "float32", "trainable": false}, "name": "block_11_add", "inbound_nodes": [[["block_10_project_BN", 0, 0, {}], ["block_11_project_BN", 0, 0, {}]]]}, {"class_name": "Conv2D", "config": {"groups": 1, "data_format": "channels_last", "trainable": false, "bias_initializer": {"class_name": "Zeros", "config": {}}, "activation": "linear", "kernel_constraint": null, "kernel_regularizer": null, "filters": 576, "use_bias": false, "name": "block_12_expand", "kernel_size": [1, 1], "kernel_initializer": {"class_name": "GlorotUniform", "config": {"seed": null}}, "activity_regularizer": null, "padding": "same", "bias_constraint": null, "bias_regularizer": null, "dtype": "float32", "dilation_rate": [1, 1], "strides": [1, 1]}, "name": "block_12_expand", "inbound_nodes": [[["block_11_add", 0, 0, {}]]]}, {"class_name": "BatchNormalization", "config": {"gamma_constraint": null, "beta_regularizer": null, "trainable": false, "scale": true, "gamma_regularizer": null, "beta_constraint": null, "gamma_initializer": {"class_name": "Ones", "config": {}}, "epsilon": 0.001, "name": "block_12_expand_BN", "moving_variance_initializer": {"class_name": "Ones", "config": {}}, "momentum": 0.999, "center": true, "dtype": "float32", "axis": -1, "moving_mean_initializer": {"class_name": "Zeros", "config": {}}, "beta_initializer": {"class_name": "Zeros", "config": {}}}, "name": "block_12_expand_BN", "inbound_nodes": [[["block_12_expand", 0, 0, {}]]]}, {"class_name": "ReLU", "config": {"name": "block_12_expand_relu", "dtype": "float32", "threshold": 0.0, "trainable": false, "max_value": 6.0, "negative_slope": 0.0}, "name": "block_12_expand_relu", "inbound_nodes": [[["block_12_expand_BN", 0, 0, {}]]]}, {"class_name": "DepthwiseConv2D", "config": {"data_format": "channels_last", "trainable": false, "depth_multiplier": 1, "bias_initializer": {"class_name": "Zeros", "config": {}}, "depthwise_constraint": null, "activation": "linear", "use_bias": false, "name": "block_12_depthwise", "kernel_size": [3, 3], "activity_regularizer": null, "padding": "same", "bias_constraint": null, "bias_regularizer": null, "depthwise_regularizer": null, "dtype": "float32", "depthwise_initializer": {"class_name": "GlorotUniform", "config": {"seed": null}}, "dilation_rate": [1, 1], "strides": [1, 1]}, "name": "block_12_depthwise", "inbound_nodes": [[["block_12_expand_relu", 0, 0, {}]]]}, {"class_name": "BatchNormalization", "config": {"gamma_constraint": null, "beta_regularizer": null, "trainable": false, "scale": true, "gamma_regularizer": null, "beta_constraint": null, "gamma_initializer": {"class_name": "Ones", "config": {}}, "epsilon": 0.001, "name": "block_12_depthwise_BN", "moving_variance_initializer": {"class_name": "Ones", "config": {}}, "momentum": 0.999, "center": true, "dtype": "float32", "axis": -1, "moving_mean_initializer": {"class_name": "Zeros", "config": {}}, "beta_initializer": {"class_name": "Zeros", "config": {}}}, "name": "block_12_depthwise_BN", "inbound_nodes": [[["block_12_depthwise", 0, 0, {}]]]}, {"class_name": "ReLU", "config": {"name": "block_12_depthwise_relu", "dtype": "float32", "threshold": 0.0, "trainable": false, "max_value": 6.0, "negative_slope": 0.0}, "name": "block_12_depthwise_relu", "inbound_nodes": [[["block_12_depthwise_BN", 0, 0, {}]]]}, {"class_name": "Conv2D", "config": {"groups": 1, "data_format": "channels_last", "trainable": false, "bias_initializer": {"class_name": "Zeros", "config": {}}, "activation": "linear", "kernel_constraint": null, "kernel_regularizer": null, "filters": 96, "use_bias": false, "name": "block_12_project", "kernel_size": [1, 1], "kernel_initializer": {"class_name": "GlorotUniform", "config": {"seed": null}}, "activity_regularizer": null, "padding": "same", "bias_constraint": null, "bias_regularizer": null, "dtype": "float32", "dilation_rate": [1, 1], "strides": [1, 1]}, "name": "block_12_project", "inbound_nodes": [[["block_12_depthwise_relu", 0, 0, {}]]]}, {"class_name": "BatchNormalization", "config": {"gamma_constraint": null, "beta_regularizer": null, "trainable": false, "scale": true, "gamma_regularizer": null, "beta_constraint": null, "gamma_initializer": {"class_name": "Ones", "config": {}}, "epsilon": 0.001, "name": "block_12_project_BN", "moving_variance_initializer": {"class_name": "Ones", "config": {}}, "momentum": 0.999, "center": true, "dtype": "float32", "axis": -1, "moving_mean_initializer": {"class_name": "Zeros", "config": {}}, "beta_initializer": {"class_name": "Zeros", "config": {}}}, "name": "block_12_project_BN", "inbound_nodes": [[["block_12_project", 0, 0, {}]]]}, {"class_name": "Add", "config": {"name": "block_12_add", "dtype": "float32", "trainable": false}, "name": "block_12_add", "inbound_nodes": [[["block_11_add", 0, 0, {}], ["block_12_project_BN", 0, 0, {}]]]}, {"class_name": "Conv2D", "config": {"groups": 1, "data_format": "channels_last", "trainable": false, "bias_initializer": {"class_name": "Zeros", "config": {}}, "activation": "linear", "kernel_constraint": null, "kernel_regularizer": null, "filters": 576, "use_bias": false, "name": "block_13_expand", "kernel_size": [1, 1], "kernel_initializer": {"class_name": "GlorotUniform", "config": {"seed": null}}, "activity_regularizer": null, "padding": "same", "bias_constraint": null, "bias_regularizer": null, "dtype": "float32", "dilation_rate": [1, 1], "strides": [1, 1]}, "name": "block_13_expand", "inbound_nodes": [[["block_12_add", 0, 0, {}]]]}, {"class_name": "BatchNormalization", "config": {"gamma_constraint": null, "beta_regularizer": null, "trainable": false, "scale": true, "gamma_regularizer": null, "beta_constraint": null, "gamma_initializer": {"class_name": "Ones", "config": {}}, "epsilon": 0.001, "name": "block_13_expand_BN", "moving_variance_initializer": {"class_name": "Ones", "config": {}}, "momentum": 0.999, "center": true, "dtype": "float32", "axis": -1, "moving_mean_initializer": {"class_name": "Zeros", "config": {}}, "beta_initializer": {"class_name": "Zeros", "config": {}}}, "name": "block_13_expand_BN", "inbound_nodes": [[["block_13_expand", 0, 0, {}]]]}, {"class_name": "ReLU", "config": {"name": "block_13_expand_relu", "dtype": "float32", "threshold": 0.0, "trainable": false, "max_value": 6.0, "negative_slope": 0.0}, "name": "block_13_expand_relu", "inbound_nodes": [[["block_13_expand_BN", 0, 0, {}]]]}, {"class_name": "ZeroPadding2D", "config": {"name": "block_13_pad", "dtype": "float32", "data_format": "channels_last", "trainable": false, "padding": [[0, 1], [0, 1]]}, "name": "block_13_pad", "inbound_nodes": [[["block_13_expand_relu", 0, 0, {}]]]}, {"class_name": "DepthwiseConv2D", "config": {"data_format": "channels_last", "trainable": false, "depth_multiplier": 1, "bias_initializer": {"class_name": "Zeros", "config": {}}, "depthwise_constraint": null, "activation": "linear", "use_bias": false, "name": "block_13_depthwise", "kernel_size": [3, 3], "activity_regularizer": null, "padding": "valid", "bias_constraint": null, "bias_regularizer": null, "depthwise_regularizer": null, "dtype": "float32", "depthwise_initializer": {"class_name": "GlorotUniform", "config": {"seed": null}}, "dilation_rate": [1, 1], "strides": [2, 2]}, "name": "block_13_depthwise", "inbound_nodes": [[["block_13_pad", 0, 0, {}]]]}, {"class_name": "BatchNormalization", "config": {"gamma_constraint": null, "beta_regularizer": null, "trainable": false, "scale": true, "gamma_regularizer": null, "beta_constraint": null, "gamma_initializer": {"class_name": "Ones", "config": {}}, "epsilon": 0.001, "name": "block_13_depthwise_BN", "moving_variance_initializer": {"class_name": "Ones", "config": {}}, "momentum": 0.999, "center": true, "dtype": "float32", "axis": -1, "moving_mean_initializer": {"class_name": "Zeros", "config": {}}, "beta_initializer": {"class_name": "Zeros", "config": {}}}, "name": "block_13_depthwise_BN", "inbound_nodes": [[["block_13_depthwise", 0, 0, {}]]]}, {"class_name": "ReLU", "config": {"name": "block_13_depthwise_relu", "dtype": "float32", "threshold": 0.0, "trainable": false, "max_value": 6.0, "negative_slope": 0.0}, "name": "block_13_depthwise_relu", "inbound_nodes": [[["block_13_depthwise_BN", 0, 0, {}]]]}, {"class_name": "Conv2D", "config": {"groups": 1, "data_format": "channels_last", "trainable": false, "bias_initializer": {"class_name": "Zeros", "config": {}}, "activation": "linear", "kernel_constraint": null, "kernel_regularizer": null, "filters": 160, "use_bias": false, "name": "block_13_project", "kernel_size": [1, 1], "kernel_initializer": {"class_name": "GlorotUniform", "config": {"seed": null}}, "activity_regularizer": null, "padding": "same", "bias_constraint": null, "bias_regularizer": null, "dtype": "float32", "dilation_rate": [1, 1], "strides": [1, 1]}, "name": "block_13_project", "inbound_nodes": [[["block_13_depthwise_relu", 0, 0, {}]]]}, {"class_name": "BatchNormalization", "config": {"gamma_constraint": null, "beta_regularizer": null, "trainable": true, "scale": true, "gamma_regularizer": null, "beta_constraint": null, "gamma_initializer": {"class_name": "Ones", "config": {}}, "epsilon": 0.001, "name": "block_13_project_BN", "moving_variance_initializer": {"class_name": "Ones", "config": {}}, "momentum": 0.999, "center": true, "dtype": "float32", "axis": -1, "moving_mean_initializer": {"class_name": "Zeros", "config": {}}, "beta_initializer": {"class_name": "Zeros", "config": {}}}, "name": "block_13_project_BN", "inbound_nodes": [[["block_13_project", 0, 0, {}]]]}, {"class_name": "Conv2D", "config": {"groups": 1, "data_format": "channels_last", "trainable": true, "bias_initializer": {"class_name": "Zeros", "config": {}}, "activation": "linear", "kernel_constraint": null, "kernel_regularizer": null, "filters": 960, "use_bias": false, "name": "block_14_expand", "kernel_size": [1, 1], "kernel_initializer": {"class_name": "GlorotUniform", "config": {"seed": null}}, "activity_regularizer": null, "padding": "same", "bias_constraint": null, "bias_regularizer": null, "dtype": "float32", "dilation_rate": [1, 1], "strides": [1, 1]}, "name": "block_14_expand", "inbound_nodes": [[["block_13_project_BN", 0, 0, {}]]]}, {"class_name": "BatchNormalization", "config": {"gamma_constraint": null, "beta_regularizer": null, "trainable": true, "scale": true, "gamma_regularizer": null, "beta_constraint": null, "gamma_initializer": {"class_name": "Ones", "config": {}}, "epsilon": 0.001, "name": "block_14_expand_BN", "moving_variance_initializer": {"class_name": "Ones", "config": {}}, "momentum": 0.999, "center": true, "dtype": "float32", "axis": -1, "moving_mean_initializer": {"class_name": "Zeros", "config": {}}, "beta_initializer": {"class_name": "Zeros", "config": {}}}, "name": "block_14_expand_BN", "inbound_nodes": [[["block_14_expand", 0, 0, {}]]]}, {"class_name": "ReLU", "config": {"name": "block_14_expand_relu", "dtype": "float32", "threshold": 0.0, "trainable": true, "max_value": 6.0, "negative_slope": 0.0}, "name": "block_14_expand_relu", "inbound_nodes": [[["block_14_expand_BN", 0, 0, {}]]]}, {"class_name": "DepthwiseConv2D", "config": {"data_format": "channels_last", "trainable": true, "depth_multiplier": 1, "bias_initializer": {"class_name": "Zeros", "config": {}}, "depthwise_constraint": null, "activation": "linear", "use_bias": false, "name": "block_14_depthwise", "kernel_size": [3, 3], "activity_regularizer": null, "padding": "same", "bias_constraint": null, "bias_regularizer": null, "depthwise_regularizer": null, "dtype": "float32", "depthwise_initializer": {"class_name": "GlorotUniform", "config": {"seed": null}}, "dilation_rate": [1, 1], "strides": [1, 1]}, "name": "block_14_depthwise", "inbound_nodes": [[["block_14_expand_relu", 0, 0, {}]]]}, {"class_name": "BatchNormalization", "config": {"gamma_constraint": null, "beta_regularizer": null, "trainable": true, "scale": true, "gamma_regularizer": null, "beta_constraint": null, "gamma_initializer": {"class_name": "Ones", "config": {}}, "epsilon": 0.001, "name": "block_14_depthwise_BN", "moving_variance_initializer": {"class_name": "Ones", "config": {}}, "momentum": 0.999, "center": true, "dtype": "float32", "axis": -1, "moving_mean_initializer": {"class_name": "Zeros", "config": {}}, "beta_initializer": {"class_name": "Zeros", "config": {}}}, "name": "block_14_depthwise_BN", "inbound_nodes": [[["block_14_depthwise", 0, 0, {}]]]}, {"class_name": "ReLU", "config": {"name": "block_14_depthwise_relu", "dtype": "float32", "threshold": 0.0, "trainable": true, "max_value": 6.0, "negative_slope": 0.0}, "name": "block_14_depthwise_relu", "inbound_nodes": [[["block_14_depthwise_BN", 0, 0, {}]]]}, {"class_name": "Conv2D", "config": {"groups": 1, "data_format": "channels_last", "trainable": true, "bias_initializer": {"class_name": "Zeros", "config": {}}, "activation": "linear", "kernel_constraint": null, "kernel_regularizer": null, "filters": 160, "use_bias": false, "name": "block_14_project", "kernel_size": [1, 1], "kernel_initializer": {"class_name": "GlorotUniform", "config": {"seed": null}}, "activity_regularizer": null, "padding": "same", "bias_constraint": null, "bias_regularizer": null, "dtype": "float32", "dilation_rate": [1, 1], "strides": [1, 1]}, "name": "block_14_project", "inbound_nodes": [[["block_14_depthwise_relu", 0, 0, {}]]]}, {"class_name": "BatchNormalization", "config": {"gamma_constraint": null, "beta_regularizer": null, "trainable": true, "scale": true, "gamma_regularizer": null, "beta_constraint": null, "gamma_initializer": {"class_name": "Ones", "config": {}}, "epsilon": 0.001, "name": "block_14_project_BN", "moving_variance_initializer": {"class_name": "Ones", "config": {}}, "momentum": 0.999, "center": true, "dtype": "float32", "axis": -1, "moving_mean_initializer": {"class_name": "Zeros", "config": {}}, "beta_initializer": {"class_name": "Zeros", "config": {}}}, "name": "block_14_project_BN", "inbound_nodes": [[["block_14_project", 0, 0, {}]]]}, {"class_name": "Add", "config": {"name": "block_14_add", "dtype": "float32", "trainable": true}, "name": "block_14_add", "inbound_nodes": [[["block_13_project_BN", 0, 0, {}], ["block_14_project_BN", 0, 0, {}]]]}, {"class_name": "Conv2D", "config": {"groups": 1, "data_format": "channels_last", "trainable": true, "bias_initializer": {"class_name": "Zeros", "config": {}}, "activation": "linear", "kernel_constraint": null, "kernel_regularizer": null, "filters": 960, "use_bias": false, "name": "block_15_expand", "kernel_size": [1, 1], "kernel_initializer": {"class_name": "GlorotUniform", "config": {"seed": null}}, "activity_regularizer": null, "padding": "same", "bias_constraint": null, "bias_regularizer": null, "dtype": "float32", "dilation_rate": [1, 1], "strides": [1, 1]}, "name": "block_15_expand", "inbound_nodes": [[["block_14_add", 0, 0, {}]]]}, {"class_name": "BatchNormalization", "config": {"gamma_constraint": null, "beta_regularizer": null, "trainable": true, "scale": true, "gamma_regularizer": null, "beta_constraint": null, "gamma_initializer": {"class_name": "Ones", "config": {}}, "epsilon": 0.001, "name": "block_15_expand_BN", "moving_variance_initializer": {"class_name": "Ones", "config": {}}, "momentum": 0.999, "center": true, "dtype": "float32", "axis": -1, "moving_mean_initializer": {"class_name": "Zeros", "config": {}}, "beta_initializer": {"class_name": "Zeros", "config": {}}}, "name": "block_15_expand_BN", "inbound_nodes": [[["block_15_expand", 0, 0, {}]]]}, {"class_name": "ReLU", "config": {"name": "block_15_expand_relu", "dtype": "float32", "threshold": 0.0, "trainable": true, "max_value": 6.0, "negative_slope": 0.0}, "name": "block_15_expand_relu", "inbound_nodes": [[["block_15_expand_BN", 0, 0, {}]]]}, {"class_name": "DepthwiseConv2D", "config": {"data_format": "channels_last", "trainable": true, "depth_multiplier": 1, "bias_initializer": {"class_name": "Zeros", "config": {}}, "depthwise_constraint": null, "activation": "linear", "use_bias": false, "name": "block_15_depthwise", "kernel_size": [3, 3], "activity_regularizer": null, "padding": "same", "bias_constraint": null, "bias_regularizer": null, "depthwise_regularizer": null, "dtype": "float32", "depthwise_initializer": {"class_name": "GlorotUniform", "config": {"seed": null}}, "dilation_rate": [1, 1], "strides": [1, 1]}, "name": "block_15_depthwise", "inbound_nodes": [[["block_15_expand_relu", 0, 0, {}]]]}, {"class_name": "BatchNormalization", "config": {"gamma_constraint": null, "beta_regularizer": null, "trainable": true, "scale": true, "gamma_regularizer": null, "beta_constraint": null, "gamma_initializer": {"class_name": "Ones", "config": {}}, "epsilon": 0.001, "name": "block_15_depthwise_BN", "moving_variance_initializer": {"class_name": "Ones", "config": {}}, "momentum": 0.999, "center": true, "dtype": "float32", "axis": -1, "moving_mean_initializer": {"class_name": "Zeros", "config": {}}, "beta_initializer": {"class_name": "Zeros", "config": {}}}, "name": "block_15_depthwise_BN", "inbound_nodes": [[["block_15_depthwise", 0, 0, {}]]]}, {"class_name": "ReLU", "config": {"name": "block_15_depthwise_relu", "dtype": "float32", "threshold": 0.0, "trainable": true, "max_value": 6.0, "negative_slope": 0.0}, "name": "block_15_depthwise_relu", "inbound_nodes": [[["block_15_depthwise_BN", 0, 0, {}]]]}, {"class_name": "Conv2D", "config": {"groups": 1, "data_format": "channels_last", "trainable": true, "bias_initializer": {"class_name": "Zeros", "config": {}}, "activation": "linear", "kernel_constraint": null, "kernel_regularizer": null, "filters": 160, "use_bias": false, "name": "block_15_project", "kernel_size": [1, 1], "kernel_initializer": {"class_name": "GlorotUniform", "config": {"seed": null}}, "activity_regularizer": null, "padding": "same", "bias_constraint": null, "bias_regularizer": null, "dtype": "float32", "dilation_rate": [1, 1], "strides": [1, 1]}, "name": "block_15_project", "inbound_nodes": [[["block_15_depthwise_relu", 0, 0, {}]]]}, {"class_name": "BatchNormalization", "config": {"gamma_constraint": null, "beta_regularizer": null, "trainable": true, "scale": true, "gamma_regularizer": null, "beta_constraint": null, "gamma_initializer": {"class_name": "Ones", "config": {}}, "epsilon": 0.001, "name": "block_15_project_BN", "moving_variance_initializer": {"class_name": "Ones", "config": {}}, "momentum": 0.999, "center": true, "dtype": "float32", "axis": -1, "moving_mean_initializer": {"class_name": "Zeros", "config": {}}, "beta_initializer": {"class_name": "Zeros", "config": {}}}, "name": "block_15_project_BN", "inbound_nodes": [[["block_15_project", 0, 0, {}]]]}, {"class_name": "Add", "config": {"name": "block_15_add", "dtype": "float32", "trainable": true}, "name": "block_15_add", "inbound_nodes": [[["block_14_add", 0, 0, {}], ["block_15_project_BN", 0, 0, {}]]]}, {"class_name": "Conv2D", "config": {"groups": 1, "data_format": "channels_last", "trainable": true, "bias_initializer": {"class_name": "Zeros", "config": {}}, "activation": "linear", "kernel_constraint": null, "kernel_regularizer": null, "filters": 960, "use_bias": false, "name": "block_16_expand", "kernel_size": [1, 1], "kernel_initializer": {"class_name": "GlorotUniform", "config": {"seed": null}}, "activity_regularizer": null, "padding": "same", "bias_constraint": null, "bias_regularizer": null, "dtype": "float32", "dilation_rate": [1, 1], "strides": [1, 1]}, "name": "block_16_expand", "inbound_nodes": [[["block_15_add", 0, 0, {}]]]}, {"class_name": "BatchNormalization", "config": {"gamma_constraint": null, "beta_regularizer": null, "trainable": true, "scale": true, "gamma_regularizer": null, "beta_constraint": null, "gamma_initializer": {"class_name": "Ones", "config": {}}, "epsilon": 0.001, "name": "block_16_expand_BN", "moving_variance_initializer": {"class_name": "Ones", "config": {}}, "momentum": 0.999, "center": true, "dtype": "float32", "axis": -1, "moving_mean_initializer": {"class_name": "Zeros", "config": {}}, "beta_initializer": {"class_name": "Zeros", "config": {}}}, "name": "block_16_expand_BN", "inbound_nodes": [[["block_16_expand", 0, 0, {}]]]}, {"class_name": "ReLU", "config": {"name": "block_16_expand_relu", "dtype": "float32", "threshold": 0.0, "trainable": true, "max_value": 6.0, "negative_slope": 0.0}, "name": "block_16_expand_relu", "inbound_nodes": [[["block_16_expand_BN", 0, 0, {}]]]}, {"class_name": "DepthwiseConv2D", "config": {"data_format": "channels_last", "trainable": true, "depth_multiplier": 1, "bias_initializer": {"class_name": "Zeros", "config": {}}, "depthwise_constraint": null, "activation": "linear", "use_bias": false, "name": "block_16_depthwise", "kernel_size": [3, 3], "activity_regularizer": null, "padding": "same", "bias_constraint": null, "bias_regularizer": null, "depthwise_regularizer": null, "dtype": "float32", "depthwise_initializer": {"class_name": "GlorotUniform", "config": {"seed": null}}, "dilation_rate": [1, 1], "strides": [1, 1]}, "name": "block_16_depthwise", "inbound_nodes": [[["block_16_expand_relu", 0, 0, {}]]]}, {"class_name": "BatchNormalization", "config": {"gamma_constraint": null, "beta_regularizer": null, "trainable": true, "scale": true, "gamma_regularizer": null, "beta_constraint": null, "gamma_initializer": {"class_name": "Ones", "config": {}}, "epsilon": 0.001, "name": "block_16_depthwise_BN", "moving_variance_initializer": {"class_name": "Ones", "config": {}}, "momentum": 0.999, "center": true, "dtype": "float32", "axis": -1, "moving_mean_initializer": {"class_name": "Zeros", "config": {}}, "beta_initializer": {"class_name": "Zeros", "config": {}}}, "name": "block_16_depthwise_BN", "inbound_nodes": [[["block_16_depthwise", 0, 0, {}]]]}, {"class_name": "ReLU", "config": {"name": "block_16_depthwise_relu", "dtype": "float32", "threshold": 0.0, "trainable": true, "max_value": 6.0, "negative_slope": 0.0}, "name": "block_16_depthwise_relu", "inbound_nodes": [[["block_16_depthwise_BN", 0, 0, {}]]]}, {"class_name": "Conv2D", "config": {"groups": 1, "data_format": "channels_last", "trainable": true, "bias_initializer": {"class_name": "Zeros", "config": {}}, "activation": "linear", "kernel_constraint": null, "kernel_regularizer": null, "filters": 320, "use_bias": false, "name": "block_16_project", "kernel_size": [1, 1], "kernel_initializer": {"class_name": "GlorotUniform", "config": {"seed": null}}, "activity_regularizer": null, "padding": "same", "bias_constraint": null, "bias_regularizer": null, "dtype": "float32", "dilation_rate": [1, 1], "strides": [1, 1]}, "name": "block_16_project", "inbound_nodes": [[["block_16_depthwise_relu", 0, 0, {}]]]}, {"class_name": "BatchNormalization", "config": {"gamma_constraint": null, "beta_regularizer": null, "trainable": true, "scale": true, "gamma_regularizer": null, "beta_constraint": null, "gamma_initializer": {"class_name": "Ones", "config": {}}, "epsilon": 0.001, "name": "block_16_project_BN", "moving_variance_initializer": {"class_name": "Ones", "config": {}}, "momentum": 0.999, "center": true, "dtype": "float32", "axis": -1, "moving_mean_initializer": {"class_name": "Zeros", "config": {}}, "beta_initializer": {"class_name": "Zeros", "config": {}}}, "name": "block_16_project_BN", "inbound_nodes": [[["block_16_project", 0, 0, {}]]]}, {"class_name": "Conv2D", "config": {"groups": 1, "data_format": "channels_last", "trainable": true, "bias_initializer": {"class_name": "Zeros", "config": {}}, "activation": "linear", "kernel_constraint": null, "kernel_regularizer": null, "filters": 1280, "use_bias": false, "name": "Conv_1", "kernel_size": [1, 1], "kernel_initializer": {"class_name": "GlorotUniform", "config": {"seed": null}}, "activity_regularizer": null, "padding": "valid", "bias_constraint": null, "bias_regularizer": null, "dtype": "float32", "dilation_rate": [1, 1], "strides": [1, 1]}, "name": "Conv_1", "inbound_nodes": [[["block_16_project_BN", 0, 0, {}]]]}, {"class_name": "BatchNormalization", "config": {"gamma_constraint": null, "beta_regularizer": null, "trainable": true, "scale": true, "gamma_regularizer": null, "beta_constraint": null, "gamma_initializer": {"class_name": "Ones", "config": {}}, "epsilon": 0.001, "name": "Conv_1_bn", "moving_variance_initializer": {"class_name": "Ones", "config": {}}, "momentum": 0.999, "center": true, "dtype": "float32", "axis": -1, "moving_mean_initializer": {"class_name": "Zeros", "config": {}}, "beta_initializer": {"class_name": "Zeros", "config": {}}}, "name": "Conv_1_bn", "inbound_nodes": [[["Conv_1", 0, 0, {}]]]}, {"class_name": "ReLU", "config": {"name": "out_relu", "dtype": "float32", "threshold": 0.0, "trainable": true, "max_value": 6.0, "negative_slope": 0.0}, "name": "out_relu", "inbound_nodes": [[["Conv_1_bn", 0, 0, {}]]]}, {"class_name": "GlobalAveragePooling2D", "config": {"name": "global_average_pooling2d", "dtype": "float32", "data_format": "channels_last", "trainable": true, "keepdims": false}, "name": "global_average_pooling2d", "inbound_nodes": [[["out_relu", 0, 0, {}]]]}, {"class_name": "Dense", "config": {"use_bias": true, "name": "dense", "kernel_initializer": {"class_name": "GlorotUniform", "config": {"seed": null}}, "trainable": true, "bias_constraint": null, "bias_initializer": {"class_name": "Zeros", "config": {}}, "bias_regularizer": null, "units": 256, "dtype": "float32", "activation": "relu", "kernel_constraint": null, "kernel_regularizer": null}, "name": "dense", "inbound_nodes": [[["global_average_pooling2d", 0, 0, {}]]]}, {"class_name": "Dropout", "config": {"name": "dropout", "dtype": "float32", "rate": 0.4, "trainable": true}, "name": "dropout", "inbound_nodes": [[["dense", 0, 0, {}]]]}, {"class_name": "Dense", "config": {"use_bias": true, "name": "dense_1", "kernel_initializer": {"class_name": "GlorotUniform", "config": {"seed": null}}, "trainable": true, "bias_constraint": null, "bias_initializer": {"class_name": "Zeros", "config": {}}, "bias_regularizer": null, "units": 128, "dtype": "float32", "activation": "relu", "kernel_constraint": null, "kernel_regularizer": null}, "name": "dense_1", "inbound_nodes": [[["dropout", 0, 0, {}]]]}, {"class_name": "Dropout", "config": {"name": "dropout_1", "dtype": "float32", "rate": 0.3, "trainable": true}, "name": "dropout_1", "inbound_nodes": [[["dense_1", 0, 0, {}]]]}, {"class_name": "Dense", "config": {"use_bias": true, "name": "dense_2", "kernel_initializer": {"class_name": "GlorotUniform", "config": {"seed": null}}, "trainable": true, "bias_constraint": null, "bias_initializer": {"class_name": "Zeros", "config": {}}, "bias_regularizer": null, "units": 11, "dtype": "float32", "activation": "softmax", "kernel_constraint": null, "kernel_regularizer": null}, "name": "dense_2", "inbound_nodes": [[["dropout_1", 0, 0, {}]]]}], "input_layers": [["input_layer", 0, 0]], "output_layers": [["dense_2", 0, 0]]}, "build_config": {"input_shape": null}, "compile_config": {"optimizer": {"module": "keras.optimizers", "class_name": "Adam", "config": {"name": "adam", "learning_rate": 4.999999873689376e-06, "weight_decay": null, "clipnorm": null, "global_clipnorm": null, "clipvalue": null, "use_ema": false, "ema_momentum": 0.99, "ema_overwrite_frequency": null, "loss_scale_factor": null, "gradient_accumulation_steps": null, "beta_1": 0.9, "beta_2": 0.999, "epsilon": 1e-07, "amsgrad": false}, "registered_name": null}, "loss": {"module": "builtins", "class_name": "function", "config": "categorical_crossentropy", "registered_name": "function"}, "loss_weights": null, "metrics": ["accuracy"], "weighted_metrics": null, "run_eagerly": false, "steps_per_execution": 1, "jit_compile": true}}, "weightsManifest": [{"paths": ["group1-shard1of3.bin", "group1-shard2of3.bin", "group1-shard3of3.bin"], "weights": [{"name": "kernel", "shape": [3, 3, 3, 32], "dtype": "float32"}, {"name": "gamma", "shape": [32], "dtype": "float32"}, {"name": "beta", "shape": [32], "dtype": "float32"}, {"name": "moving_mean", "shape": [32], "dtype": "float32"}, {"name": "moving_variance", "shape": [32], "dtype": "float32"}, {"name": "kernel", "shape": [3, 3, 32, 1], "dtype": "float32"}, {"name": "gamma", "shape": [32], "dtype": "float32"}, {"name": "beta", "shape": [32], "dtype": "float32"}, {"name": "moving_mean", "shape": [32], "dtype": "float32"}, {"name": "moving_variance", "shape": [32], "dtype": "float32"}, {"name": "kernel", "shape": [1, 1, 32, 16], "dtype": "float32"}, {"name": "gamma", "shape": [16], "dtype": "float32"}, {"name": "beta", "shape": [16], "dtype": "float32"}, {"name": "moving_mean", "shape": [16], "dtype": "float32"}, {"name": "moving_variance", "shape": [16], "dtype": "float32"}, {"name": "kernel", "shape": [1, 1, 16, 96], "dtype": "float32"}, {"name": "gamma", "shape": [96], "dtype": "float32"}, {"name": "beta", "shape": [96], "dtype": "float32"}, {"name": "moving_mean", "shape": [96], "dtype": "float32"}, {"name": "moving_variance", "shape": [96], "dtype": "float32"}, {"name": "kernel", "shape": [3, 3, 96, 1], "dtype": "float32"}, {"name": "gamma", "shape": [96], "dtype": "float32"}, {"name": "beta", "shape": [96], "dtype": "float32"}, {"name": "moving_mean", "shape": [96], "dtype": "float32"}, {"name": "moving_variance", "shape": [96], "dtype": "float32"}, {"name": "kernel", "shape": [1, 1, 96, 24], "dtype": "float32"}, {"name": "gamma", "shape": [24], "dtype": "float32"}, {"name": "beta", "shape": [24], "dtype": "float32"}, {"name": "moving_mean", "shape": [24], "dtype": "float32"}, {"name": "moving_variance", "shape": [24], "dtype": "float32"}, {"name": "kernel", "shape": [1, 1, 24, 144], "dtype": "float32"}, {"name": "gamma", "shape": [144], "dtype": "float32"}, {"name": "beta", "shape": [144], "dtype": "float32"}, {"name": "moving_mean", "shape": [144], "dtype": "float32"}, {"name": "moving_variance", "shape": [144], "dtype": "float32"}, {"name": "kernel", "shape": [3, 3, 144, 1], "dtype": "float32"}, {"name": "gamma", "shape": [144], "dtype": "float32"}, {"name": "beta", "shape": [144], "dtype": "float32"}, {"name": "moving_mean", "shape": [144], "dtype": "float32"}, {"name": "moving_variance", "shape": [144], "dtype": "float32"}, {"name": "kernel", "shape": [1, 1, 144, 24], "dtype": "float32"}, {"name": "gamma", "shape": [24], "dtype": "float32"}, {"name": "beta", "shape": [24], "dtype": "float32"}, {"name": "moving_mean", "shape": [24], "dtype": "float32"}, {"name": "moving_variance", "shape": [24], "dtype": "float32"}, {"name": "kernel", "shape": [1, 1, 24, 144], "dtype": "float32"}, {"name": "gamma", "shape": [144], "dtype": "float32"}, {"name": "beta", "shape": [144], "dtype": "float32"}, {"name": "moving_mean", "shape": [144], "dtype": "float32"}, {"name": "moving_variance", "shape": [144], "dtype": "float32"}, {"name": "kernel", "shape": [3, 3, 144, 1], "dtype": "float32"}, {"name": "gamma", "shape": [144], "dtype": "float32"}, {"name": "beta", "shape": [144], "dtype": "float32"}, {"name": "moving_mean", "shape": [144], "dtype": "float32"}, {"name": "moving_variance", "shape": [144], "dtype": "float32"}, {"name": "kernel", "shape": [1, 1, 144, 32], "dtype": "float32"}, {"name": "gamma", "shape": [32], "dtype": "float32"}, {"name": "beta", "shape": [32], "dtype": "float32"}, {"name": "moving_mean", "shape": [32], "dtype": "float32"}, {"name": "moving_variance", "shape": [32], "dtype": "float32"}, {"name": "kernel", "shape": [1, 1, 32, 192], "dtype": "float32"}, {"name": "gamma", "shape": [192], "dtype": "float32"}, {"name": "beta", "shape": [192], "dtype": "float32"}, {"name": "moving_mean", "shape": [192], "dtype": "float32"}, {"name": "moving_variance", "shape": [192], "dtype": "float32"}, {"name": "kernel", "shape": [3, 3, 192, 1], "dtype": "float32"}, {"name": "gamma", "shape": [192], "dtype": "float32"}, {"name": "beta", "shape": [192], "dtype": "float32"}, {"name": "moving_mean", "shape": [192], "dtype": "float32"}, {"name": "moving_variance", "shape": [192], "dtype": "float32"}, {"name": "kernel", "shape": [1, 1, 192, 32], "dtype": "float32"}, {"name": "gamma", "shape": [32], "dtype": "float32"}, {"name": "beta", "shape": [32], "dtype": "float32"}, {"name": "moving_mean", "shape": [32], "dtype": "float32"}, {"name": "moving_variance", "shape": [32], "dtype": "float32"}, {"name": "kernel", "shape": [1, 1, 32, 192], "dtype": "float32"}, {"name": "gamma", "shape": [192], "dtype": "float32"}, {"name": "beta", "shape": [192], "dtype": "float32"}, {"name": "moving_mean", "shape": [192], "dtype": "float32"}, {"name": "moving_variance", "shape": [192], "dtype": "float32"}, {"name": "kernel", "shape": [3, 3, 192, 1], "dtype": "float32"}, {"name": "gamma", "shape": [192], "dtype": "float32"}, {"name": "beta", "shape": [192], "dtype": "float32"}, {"name": "moving_mean", "shape": [192], "dtype": "float32"}, {"name": "moving_variance", "shape": [192], "dtype": "float32"}, {"name": "kernel", "shape": [1, 1, 192, 32], "dtype": "float32"}, {"name": "gamma", "shape": [32], "dtype": "float32"}, {"name": "beta", "shape": [32], "dtype": "float32"}, {"name": "moving_mean", "shape": [32], "dtype": "float32"}, {"name": "moving_variance", "shape": [32], "dtype": "float32"}, {"name": "kernel", "shape": [1, 1, 32, 192], "dtype": "float32"}, {"name": "gamma", "shape": [192], "dtype": "float32"}, {"name": "beta", "shape": [192], "dtype": "float32"}, {"name": "moving_mean", "shape": [192], "dtype": "float32"}, {"name": "moving_variance", "shape": [192], "dtype": "float32"}, {"name": "kernel", "shape": [3, 3, 192, 1], "dtype": "float32"}, {"name": "gamma", "shape": [192], "dtype": "float32"}, {"name": "beta", "shape": [192], "dtype": "float32"}, {"name": "moving_mean", "shape": [192], "dtype": "float32"}, {"name": "moving_variance", "shape": [192], "dtype": "float32"}, {"name": "kernel", "shape": [1, 1, 192, 64], "dtype": "float32"}, {"name": "gamma", "shape": [64], "dtype": "float32"}, {"name": "beta", "shape": [64], "dtype": "float32"}, {"name": "moving_mean", "shape": [64], "dtype": "float32"}, {"name": "moving_variance", "shape": [64], "dtype": "float32"}, {"name": "kernel", "shape": [1, 1, 64, 384], "dtype": "float32"}, {"name": "gamma", "shape": [384], "dtype": "float32"}, {"name": "beta", "shape": [384], "dtype": "float32"}, {"name": "moving_mean", "shape": [384], "dtype": "float32"}, {"name": "moving_variance", "shape": [384], "dtype": "float32"}, {"name": "kernel", "shape": [3, 3, 384, 1], "dtype": "float32"}, {"name": "gamma", "shape": [384], "dtype": "float32"}, {"name": "beta", "shape": [384], "dtype": "float32"}, {"name": "moving_mean", "shape": [384], "dtype": "float32"}, {"name": "moving_variance", "shape": [384], "dtype": "float32"}, {"name": "kernel", "shape": [1, 1, 384, 64], "dtype": "float32"}, {"name": "gamma", "shape": [64], "dtype": "float32"}, {"name": "beta", "shape": [64], "dtype": "float32"}, {"name": "moving_mean", "shape": [64], "dtype": "float32"}, {"name": "moving_variance", "shape": [64], "dtype": "float32"}, {"name": "kernel", "shape": [1, 1, 64, 384], "dtype": "float32"}, {"name": "gamma", "shape": [384], "dtype": "float32"}, {"name": "beta", "shape": [384], "dtype": "float32"}, {"name": "moving_mean", "shape": [384], "dtype": "float32"}, {"name": "moving_variance", "shape": [384], "dtype": "float32"}, {"name": "kernel", "shape": [3, 3, 384, 1], "dtype": "float32"}, {"name": "gamma", "shape": [384], "dtype": "float32"}, {"name": "beta", "shape": [384], "dtype": "float32"}, {"name": "moving_mean", "shape": [384], "dtype": "float32"}, {"name": "moving_variance", "shape": [384], "dtype": "float32"}, {"name": "kernel", "shape": [1, 1, 384, 64], "dtype": "float32"}, {"name": "gamma", "shape": [64], "dtype": "float32"}, {"name": "beta", "shape": [64], "dtype": "float32"}, {"name": "moving_mean", "shape": [64], "dtype": "float32"}, {"name": "moving_variance", "shape": [64], "dtype": "float32"}, {"name": "kernel", "shape": [1, 1, 64, 384], "dtype": "float32"}, {"name": "gamma", "shape": [384], "dtype": "float32"}, {"name": "beta", "shape": [384], "dtype": "float32"}, {"name": "moving_mean", "shape": [384], "dtype": "float32"}, {"name": "moving_variance", "shape": [384], "dtype": "float32"}, {"name": "kernel", "shape": [3, 3, 384, 1], "dtype": "float32"}, {"name": "gamma", "shape": [384], "dtype": "float32"}, {"name": "beta", "shape": [384], "dtype": "float32"}, {"name": "moving_mean", "shape": [384], "dtype": "float32"}, {"name": "moving_variance", "shape": [384], "dtype": "float32"}, {"name": "kernel", "shape": [1, 1, 384, 64], "dtype": "float32"}, {"name": "gamma", "shape": [64], "dtype": "float32"}, {"name": "beta", "shape": [64], "dtype": "float32"}, {"name": "moving_mean", "shape": [64], "dtype": "float32"}, {"name": "moving_variance", "shape": [64], "dtype": "float32"}, {"name": "kernel", "shape": [1, 1, 64, 384], "dtype": "float32"}, {"name": "gamma", "shape": [384], "dtype": "float32"}, {"name": "beta", "shape": [384], "dtype": "float32"}, {"name": "moving_mean", "shape": [384], "dtype": "float32"}, {"name": "moving_variance", "shape": [384], "dtype": "float32"}, {"name": "kernel", "shape": [3, 3, 384, 1], "dtype": "float32"}, {"name": "gamma", "shape": [384], "dtype": "float32"}, {"name": "beta", "shape": [384], "dtype": "float32"}, {"name": "moving_mean", "shape": [384], "dtype": "float32"}, {"name": "moving_variance", "shape": [384], "dtype": "float32"}, {"name": "kernel", "shape": [1, 1, 384, 96], "dtype": "float32"}, {"name": "gamma", "shape": [96], "dtype": "float32"}, {"name": "beta", "shape": [96], "dtype": "float32"}, {"name": "moving_mean", "shape": [96], "dtype": "float32"}, {"name": "moving_variance", "shape": [96], "dtype": "float32"}, {"name": "kernel", "shape": [1, 1, 96, 576], "dtype": "float32"}, {"name": "gamma", "shape": [576], "dtype": "float32"}, {"name": "beta", "shape": [576], "dtype": "float32"}, {"name": "moving_mean", "shape": [576], "dtype": "float32"}, {"name": "moving_variance", "shape": [576], "dtype": "float32"}, {"name": "kernel", "shape": [3, 3, 576, 1], "dtype": "float32"}, {"name": "gamma", "shape": [576], "dtype": "float32"}, {"name": "beta", "shape": [576], "dtype": "float32"}, {"name": "moving_mean", "shape": [576], "dtype": "float32"}, {"name": "moving_variance", "shape": [576], "dtype": "float32"}, {"name": "kernel", "shape": [1, 1, 576, 96], "dtype": "float32"}, {"name": "gamma", "shape": [96], "dtype": "float32"}, {"name": "beta", "shape": [96], "dtype": "float32"}, {"name": "moving_mean", "shape": [96], "dtype": "float32"}, {"name": "moving_variance", "shape": [96], "dtype": "float32"}, {"name": "kernel", "shape": [1, 1, 96, 576], "dtype": "float32"}, {"name": "gamma", "shape": [576], "dtype": "float32"}, {"name": "beta", "shape": [576], "dtype": "float32"}, {"name": "moving_mean", "shape": [576], "dtype": "float32"}, {"name": "moving_variance", "shape": [576], "dtype": "float32"}, {"name": "kernel", "shape": [3, 3, 576, 1], "dtype": "float32"}, {"name": "gamma", "shape": [576], "dtype": "float32"}, {"name": "beta", "shape": [576], "dtype": "float32"}, {"name": "moving_mean", "shape": [576], "dtype": "float32"}, {"name": "moving_variance", "shape": [576], "dtype": "float32"}, {"name": "kernel", "shape": [1, 1, 576, 96], "dtype": "float32"}, {"name": "gamma", "shape": [96], "dtype": "float32"}, {"name": "beta", "shape": [96], "dtype": "float32"}, {"name": "moving_mean", "shape": [96], "dtype": "float32"}, {"name": "moving_variance", "shape": [96], "dtype": "float32"}, {"name": "kernel", "shape": [1, 1, 96, 576], "dtype": "float32"}, {"name": "gamma", "shape": [576], "dtype": "float32"}, {"name": "beta", "shape": [576], "dtype": "float32"}, {"name": "moving_mean", "shape": [576], "dtype": "float32"}, {"name": "moving_variance", "shape": [576], "dtype": "float32"}, {"name": "kernel", "shape": [3, 3, 576, 1], "dtype": "float32"}, {"name": "gamma", "shape": [576], "dtype": "float32"}, {"name": "beta", "shape": [576], "dtype": "float32"}, {"name": "moving_mean", "shape": [576], "dtype": "float32"}, {"name": "moving_variance", "shape": [576], "dtype": "float32"}, {"name": "kernel", "shape": [1, 1, 576, 160], "dtype": "float32"}, {"name": "gamma", "shape": [160], "dtype": "float32"}, {"name": "beta", "shape": [160], "dtype": "float32"}, {"name": "moving_mean", "shape": [160], "dtype": "float32"}, {"name": "moving_variance", "shape": [160], "dtype": "float32"}, {"name": "kernel", "shape": [1, 1, 160, 960], "dtype": "float32"}, {"name": "gamma", "shape": [960], "dtype": "float32"}, {"name": "beta", "shape": [960], "dtype": "float32"}, {"name": "moving_mean", "shape": [960], "dtype": "float32"}, {"name": "moving_variance", "shape": [960], "dtype": "float32"}, {"name": "kernel", "shape": [3, 3, 960, 1], "dtype": "float32"}, {"name": "gamma", "shape": [960], "dtype": "float32"}, {"name": "beta", "shape": [960], "dtype": "float32"}, {"name": "moving_mean", "shape": [960], "dtype": "float32"}, {"name": "moving_variance", "shape": [960], "dtype": "float32"}, {"name": "kernel", "shape": [1, 1, 960, 160], "dtype": "float32"}, {"name": "gamma", "shape": [160], "dtype": "float32"}, {"name": "beta", "shape": [160], "dtype": "float32"}, {"name": "moving_mean", "shape": [160], "dtype": "float32"}, {"name": "moving_variance", "shape": [160], "dtype": "float32"}, {"name": "kernel", "shape": [1, 1, 160, 960], "dtype": "float32"}, {"name": "gamma", "shape": [960], "dtype": "float32"}, {"name": "beta", "shape": [960], "dtype": "float32"}, {"name": "moving_mean", "shape": [960], "dtype": "float32"}, {"name": "moving_variance", "shape": [960], "dtype": "float32"}, {"name": "kernel", "shape": [3, 3, 960, 1], "dtype": "float32"}, {"name": "gamma", "shape": [960], "dtype": "float32"}, {"name": "beta", "shape": [960], "dtype": "float32"}, {"name": "moving_mean", "shape": [960], "dtype": "float32"}, {"name": "moving_variance", "shape": [960], "dtype": "float32"}, {"name": "kernel", "shape": [1, 1, 960, 160], "dtype": "float32"}, {"name": "gamma", "shape": [160], "dtype": "float32"}, {"name": "beta", "shape": [160], "dtype": "float32"}, {"name": "moving_mean", "shape": [160], "dtype": "float32"}, {"name": "moving_variance", "shape": [160], "dtype": "float32"}, {"name": "kernel", "shape": [1, 1, 160, 960], "dtype": "float32"}, {"name": "gamma", "shape": [960], "dtype": "float32"}, {"name": "beta", "shape": [960], "dtype": "float32"}, {"name": "moving_mean", "shape": [960], "dtype": "float32"}, {"name": "moving_variance", "shape": [960], "dtype": "float32"}, {"name": "kernel", "shape": [3, 3, 960, 1], "dtype": "float32"}, {"name": "gamma", "shape": [960], "dtype": "float32"}, {"name": "beta", "shape": [960], "dtype": "float32"}, {"name": "moving_mean", "shape": [960], "dtype": "float32"}, {"name": "moving_variance", "shape": [960], "dtype": "float32"}, {"name": "kernel", "shape": [1, 1, 960, 320], "dtype": "float32"}, {"name": "gamma", "shape": [320], "dtype": "float32"}, {"name": "beta", "shape": [320], "dtype": "float32"}, {"name": "moving_mean", "shape": [320], "dtype": "float32"}, {"name": "moving_variance", "shape": [320], "dtype": "float32"}, {"name": "kernel", "shape": [1, 1, 320, 1280], "dtype": "float32"}, {"name": "gamma", "shape": [1280], "dtype": "float32"}, {"name": "beta", "shape": [1280], "dtype": "float32"}, {"name": "moving_mean", "shape": [1280], "dtype": "float32"}, {"name": "moving_variance", "shape": [1280], "dtype": "float32"}, {"name": "kernel", "shape": [1280, 256], "dtype": "float32"}, {"name": "bias", "shape": [256], "dtype": "float32"}, {"name": "kernel", "shape": [256, 128], "dtype": "float32"}, {"name": "bias", "shape": [128], "dtype": "float32"}, {"name": "kernel", "shape": [128, 11], "dtype": "float32"}, {"name": "bias", "shape": [11], "dtype": "float32"}]}]}